model-doom_backup.pth (torch, 76459 bytes, 27 tensors)

weight f4 [8, 1, 3, 3]
00000000: aebc 1abf 83e0 cdbf 7f2c b13f e743 ef3d
00000010: 38f2 0f3f 7cdf 903f 9bcf c0bf 33ca 55c0
00000020: bce9 b03f 7f53 413e a58f 0440 71cf 1ac0
00000030: 119b 16c0 fb86 e93f 611a 923f d8d6 5cbf
00000040: ec4d af3c 8142 1e3f 000e e0bf c906 1e40
00000050: 0900 683d 81ac ddbf f15a f43f f838 b9bf
00000060: 2521 d33e 8437 883f ba97 11c0 6bd6 e4bf
00000070: 40b1 d63f a53f 30bf d140 56bf 46e3 2f40
00000080: ef13 d23e b4a1 24bf 5f77 aa3f d9e1 20bf
00000090: 4b60 753f 9b08 dbbd e549 2dc0 980b 1240
000000a0: a4c8 75be 68b2 ccbf 8922 b33f 4897 363f
000000b0: 8203 4abf 4216 3e40 3b1d 1ac0 4f4e 823f
000000c0: 25e0 d6bf 5f26 9abf 9c17 a83e 91a1 0140
000000d0: b38f 08c0 f829 04bf 94af 903e 4e69 da3e
000000e0: 2f3b 573d 32ef 4c3f b30c de3d df69 343f
000000f0: fe48 853f 02f7 a7be d039 983d faac 1340
00000100: c3b9 a43f 6a1b 973f 68c3 883e 7a14 aebf
00000110: ee87 29bf 46e7 46be 40e4 18bf d8aa aabf
-0.6044415 -1.608414 1.3841704 0.11682873 0.5622897 1.1318202 -1.5063356 -3.3404663
1.382133 0.18879507 2.0712674 -2.4189112 -2.3532145 1.8244318 1.14143 -0.86265326
0.02139946 0.61820227 -1.7504272 2.4691641 0.05664066 -1.7318269 1.9090253 -1.447051
0.41236225 1.0641942 -2.2748857 -1.7877935 1.6772842 -0.68847114 -0.8369265 2.7482467
0.41030833 -0.6430924 1.3317679 -0.62844616 0.95850056 -0.10695001 -2.7076352 2.2819576
-0.2400232 -1.5991945 1.3994914 0.71324587 -0.789116 2.9701085 -2.408034 1.0180148
-1.6787153 -1.204296 0.32830513 2.0254862 -2.1337707 -0.5162654 0.28258955 0.42658466
0.052546676 0.80052483 0.10842266 0.70474046 1.04129 -0.3280564 0.07432902 2.3074327
1.286919 1.1805241 0.26711583 -1.3599999 -0.6622304 -0.19424161 -0.5972328 -1.3333387

weight f4 [8]
00000000: fe5b 1640 f281 fb3f 7652 0b40 b8fa 1e40
00000010: b653 f83f 3069 1140 62bf ed3f a33e 0240
2.3493648 1.9649031 2.176908 2.4840527 1.9400547 2.2720451 1.857403 2.035073

bias f4 [8]
00000000: a041 723e 076f 5cbf 72cb 703d 3860 bebf
00000010: 1cf0 873f 84a8 c93e 38ce b8bf 6347 e03d
0.23657846 -0.86106914 0.05878777 -1.4873114 1.062015 0.3938638 -1.4437933 0.10951116

running_mean f4 [8]
00000000: c5d6 46bf 37d0 8f3d c9ba d3be 38ba fc3e
00000010: a2b5 b3bc d35c 01bf cd6e 7b3f c27d 7a3e
-0.7767146 0.07022136 -0.41353443 0.49360824 -0.021937195 -0.50532264 0.98215944 0.24462035

running_var f4 [8]
00000000: face 003e fbcb 273d abab 653d 80a4 973d
00000010: 50cb 0f3e 33ee ac3d a4aa c63d aa3c 283e
0.12578955 0.040966015 0.05607192 0.07404423 0.14042401 0.084438704 0.09700516 0.16429392

weight f4 [8, 8, 3, 3]
00000000: 3e02 643f 1556 76be 5592 55bf 5094 b93f
00000010: d324 04bf 4723 7a3d 35fb 46bf 3d85 6c3f
00000020: faee 81bf c255 2ebf cc3e 30bd a5d4 fdbe
00000030: 91f2 9cbf 1353 b23f 1132 1c3f 3bd9 2c3e
00000040: ca27 873e b04e 93bf 60bb 1e3d 3c9b a63f
00000050: cd70 a1bc b321 debe 10db 56bf 395a 5dbf
00000060: 6ac5 443e af96 c13c 6624 5bbf fc3b 04be
00000070: ad7e 893f a6b9 57bf e3a4 64bf 84e5 5abf
00000080: 6088 823f 31f6 d93f 2a76 fb3a 84cc a5bf
00000090: 5b9e 823f d4a3 693e 63fd 2fbf 30f2 283f
000000a0: cd79 103f f4d0 9bbf e012 efbe c72c 6bbe
000000b0: 01d8 1abf 1a24 f13e 79cd bfbf 4fc9 a63e
000000c0: 181f 7ebd a86f 69bf 02d5 06bf d3f1 a3bf
000000d0: d046 b33f 3989 b93e 02a0 5ebe 861f c7be
000000e0: 3eb5 4dbf 0a2b 7a3f ce9d 003e d4b5 a83d
000000f0: 11d7 1b3e da61 f43d b60e 753f e967 c43e
00000100: d842 133f 1a05 9d3f 7b07 a6be 5f6a 423f
00000110: 4fe6 68bf 2aab 22bf ccaa ae3e db0b 8ebd
00000120: 374a 013f 4a1f 40bf bf71 09be 1eae 8b3f
00000130: af9e 89be 39f9 123f bc26 d83e 70d9 60be
00000140: 6ad2 1b3f 89b9 4bbf 7670 5ebd d177 263f
00000150: 411a 98bf 5e08 3f3e 3855 ecbe 7d57 883e
00000160: 11db c43e d38c a7be ac6c 9bbf de4c 993e
00000170: 3975 3abe 8580 43bf 3a3c f7bd b582 37be
00000180: 5af2 543f ecc8 cc3e 0565 a2bd 6733 86bf
00000190: 3cdd a9bc 9715 163f 7fa8 2abf 3bab a1be
000001a0: e96f 53bf 55ed 083f 8336 bc3c f2f2 dbbe
000001b0: fc72 e5be a27e 503f 1506 c4bf 4832 d3bd
000001c0: 9584 333f e4c9 26bf d8e0 b33f 80f2 083f
000001d0: 9f2f cfbf 2ca5 38bf e66d 923f 1149 e0be
000001e0: 036c a23f a5ab dabe bea7 9fbf 763a 113e
000001f0: d805 b23d e6d7 41bf 4962 273e 3f4b 1fbf
00000200: 2e17 99be eadc 53bd 4108 02bf 99b1 83bd
00000210: 1f3e b83d 6fbf 6bbf 4e83 fcbd 19f8 c4bd
00000220: 6a87 dd3e d747 d33d 8fda b7bc 1a99 ebbb
00000230: 4b4d 14bf fcd9 783f bdd5 063e d8d3 40bf
00000240: 434e eabf 346e d7bf d3d0 d6be 7656 ddbe
00000250: b0b5 543e aad6 633e 221c 0cbe 6363 003d
00000260: 736e 0b3f a7cb 17bf a80b 2dbd 57ff 84bd
00000270: 1703 0fbe 30a0 063e 6269 473f 62e2 653f
00000280: e461 523f bf9b 2ebd 0ef2 62bd 5021 3abe
00000290: 969c 43bf afc0 be3e b25b e43d adee 0e3f
000002a0: 60f1 803c c62e 1fbf d786 0bbe 711a e3be
000002b0: 005b 9abe aa85 443e 4e60 c9bf aeea 0bbe
000002c0: 4419 953f 1ae1 cd3d d904 f2bd ec2c 033f
000002d0: e147 313e 07ae cdbe 8b25 5dbf f976 8cbe
000002e0: 1534 7cbf d52a a0bf 1968 663f bce0 b53d
000002f0: de23 47bf c28f e2bf 8a19 6cbf 0054 96be
00000300: 355d 7b3f dabd 523f d800 e1be 3a99 873f
00000310: 19e5 5d3d 89b8 2dbf d6ba 6a3f fefd 623f
00000320: cdb6 f83e 4f07 0b3f 8282 6ebe 635a 4d3e
00000330: 4421 90be 8761 05bf 8bc4 d33e 9aa7 bb3e
00000340: 6296 40be d30f 08bf 727a cc3f 3e44 053f
00000350: e09d 0f3f 0886 053f 3a10 0fbe 615a 17bf
00000360: 943c 373f c7a5 26bf 8b6f 013f aa81 9b3f
00000370: bd26 213e 359b da3e c7bd 77bd f094 6a3f
00000380: e47b ccbe 8827 6e3d 4c4f c63e 48f3 6a3f
00000390: 31a6 91be 948d cc3e 36eb 4ebf 401e 21bf
000003a0: 697f 73be b529 cebd 4999 bbbe 98d4 afbe
000003b0: 2537 243f 63b0 323f efd9 213f a687 973f
000003c0: 8d2b 3ebf 05a3 793e 47a2 5d3d 92df 64bf
000003d0: 6168 9c3e a393 f53e 8e9e 54be be12 853f
000003e0: 5c77 10be b6f2 273e 388c dabe b584 4f3e
000003f0: 8697 3b3f 21c7 6f3d 354e e2bd e6b9 75bf
0.8906592 -0.24056275 -0.8342641 1.4498386 -0.5161869 0.0610688 -0.7772706 0.92390805
-1.0151055 -0.68099606 -0.043028638 -0.49576297 -1.2261525 1.3931602 0.61013895 0.16879742
0.26397544 -1.1508389 0.038752913 1.3016124 -0.019707108 -0.43385085 -0.8392801 -0.86465794
0.19215932 0.023631422 -0.85602415 -0.12913507 1.0741783 -0.8426765 -0.893141 -0.85506463
1.0197868 1.7028257 0.0019184996 -1.2953038 1.0204576 0.22816402 -0.6874601 0.6599455
0.56435853 -1.2173142 -0.46694088 -0.229663 -0.60485846 0.47097856 -1.498458 0.3257546
-0.062041372 -0.91186 -0.52668774 -1.2808174 1.4005985 0.36237505 -0.21740726 -0.38891238
-0.8035468 0.9772192 0.12560198 0.08237806 0.1521876 0.11932726 0.9572557 0.38360527
0.5752387 1.2267182 -0.32427582 0.7594356 -0.90976423 -0.63542426 0.34114683 -0.06935855
0.5050387 -0.75047743 -0.13422297 1.0912511 -0.26878878 0.57411534 0.42217052 -0.21957946
0.6086794 -0.7957998 -0.05430647 0.65026575 -1.1883012 0.18655536 -0.46158767 0.26629248
0.38448384 -0.32724628 -1.2142539 0.29941458 -0.1820878 -0.7636798 -0.12072034 -0.17920955
0.831823 0.3999704 -0.07929424 -1.0484437 -0.020735376 0.58626693 -0.66663355 -0.3157595
-0.82592636 0.5348714 0.022975212 -0.4295879 -0.4481429 0.81443226 -1.5314356 -0.10312325
0.7012418 -0.6515181 1.4052992 0.53495026 -1.6186408 -0.7212703 1.1439788 -0.43805745
1.2689213 -0.4270908 -1.2473066 0.14182457 0.08692521 -0.7572006 0.16346087 -0.6222419
-0.29900497 -0.051724352 -0.50793844 -0.064303584 0.08996224 -0.9208898 -0.12329732 -0.096176334
0.43267375 0.10316437 -0.022443084 -0.007189882 -0.5793044 0.9720762 0.13167472 -0.7532325
-1.8305134 -1.6830506 -0.41956195 -0.43230027 0.20772433 0.22249857 -0.13682607 0.031344783
0.5446541 -0.59295124 -0.042247444 -0.06494015 -0.13966022 0.13147044 0.77895176 0.8979856
0.8218062 -0.042629 -0.055406623 -0.1817677 -0.76410806 0.3725638 0.11150302 0.5583294
0.015740097 -0.62180746 -0.13625656 -0.4435611 -0.30147552 0.19191614 -1.5732515 -0.13663742
1.1648335 0.100527 -0.11817331 0.5124042 0.17312576 -0.40171835 -0.8638541 -0.2743452
-0.9851697 -1.2513071 0.9000259 0.08880755 -0.77789104 -1.7700121 -0.9222647 -0.29360962
0.981891 0.8232094 -0.43945956 1.0593636 0.054173563 -0.67859703 0.9169134 0.8866881
0.48576966 0.5430803 -0.23291972 0.20054011 -0.2815038 -0.5210194 0.41360888 0.36651307
-0.18807366 -0.53149146 1.5974867 0.52057254 0.56100273 0.5215764 -0.13971034 -0.5912228
0.7157681 -0.65096706 0.50560826 1.2148945 0.15737434 0.4269654 -0.06048372 0.9163351
-0.3993827 0.05814317 0.38732374 0.9177747 -0.28447106 0.39951766 -0.80827653 -0.6293678
-0.23779072 -0.10066549 -0.36640385 -0.34341884 0.64146644 0.69800395 0.63223165 1.1838272
-0.74285203 0.24378593 0.054109838 -0.8940364 0.30548385 0.479642 -0.20763609 1.0396345
-0.14108032 0.1640118 -0.42685103 0.20265467 0.7327808 0.058539513 -0.11050073 -0.95986784

weight f4 [8]
00000000: c294 1240 7044 0340 5001 2040 d9a4 ec3f
00000010: 4a1a 1340 fc83 2440 590a 1140 4d11 0440
2.2903295 2.051052 2.50008 1.8487808 2.2984796 2.5705557 2.2662566 2.063556

bias f4 [8]
00000000: 3997 0abf 7459 e4bd bf86 67be 1506 633e
00000010: ff9c 1bbe c408 07bf 46ae 46bf 3aae 1e3f
-0.54137 -0.11149874 -0.22609995 0.22170289 -0.15196608 -0.5274775 -0.7760967 0.619846

running_mean f4 [8]
00000000: 9105 91c0 53ff 8dc0 8b00 99c0 1c35 1c40
00000010: 9e97 43c0 1ed0 22c1 011a 12bf f8db 883f
-4.5319295 -4.4374175 -4.7813163 2.4407415 -3.056129 -10.17581 -0.5707093 1.0692129

running_var f4 [8]
00000000: babc 3942 328a 7242 897e 2a43 59dc 6b42
00000010: 7cf6 7b42 036b 4842 32f2 a842 0137 9a42
46.434303 60.634956 170.49428 58.965183 62.990707 50.104504 84.47304 77.10743

weight f4 [8, 8, 3, 3]
00000000: 70c3 5ebf 33ea b8be 9952 33be 9fc1 643f
00000010: f59c 11bf 9809 ce3d 8647 bb3e 35a1 ccbe
00000020: a32e 9fbe a01e 84bf 874d ad3d 2611 8bbd
00000030: aad5 e0be d4aa f3bc 3845 5fbf 1d5c 7e3e
00000040: 6b95 b0be df23 243f 4819 2e3f 0207 133f
00000050: 995e b23d 882e 7abf c294 08bf 1955 03bf
00000060: e717 1d40 dd8a d53e bb39 483f 1041 6cbe
00000070: 41c4 d0be 1ee3 8dbf febb bcbd 0bb6 893e
00000080: fe61 0fbe a73d abbf 2a6b 6fbf 079a aabf
00000090: 08e3 973e 956f 3a3f 45e2 97bc 38a0 2ebf
000000a0: ce98 c5be 211c 76be 4aaf 773f 312a e43c
000000b0: 9aae b2be 2082 aabe e305 68bc c522 dd3e
000000c0: d81d e3bd 75fe 92bd 78e4 34bf d9e2 8ebe
000000d0: 52b3 263f fb38 cd3e 4559 cd3f b977 d4be
000000e0: 0cde 9bbf 186d 6fbf 76cc cbbe ee67 d2bf
000000f0: 01d9 49be 02e8 3b3f 7e0c 19bf 4d5e bd3d
00000100: 377c 83bf 5cc1 533f 0c7e fabe 154c a4bd
00000110: d249 c3bf 6fb0 13bf 6feb cb3f c507 47be
00000120: fee2 a33e e27d 25bf 90af aebf cd54 e7be
00000130: 1d3c 0fbf e6d4 2c3d 4523 223f 9e7f ea3e
00000140: 0e6a 49be 10a8 4cbe 44dd 8fbf aa78 a93e
00000150: 9768 a3be 2377 463f 216c 3c3c 229b 103f
00000160: 109c 253f d734 fcbe 7c14 ebbd c9c4 e6be
00000170: 56c1 803f 8c59 44be 9095 323f 731c ffbe
00000180: afff 13bf 685f 81be a682 763e 945f 793d
00000190: f712 54be 6c47 713f 2c05 c9bd 47a7 30bf
000001a0: d7ab dfbe 3fbb ae3d 6fab 933f d3b4 b63e
000001b0: d113 08bf 3073 13c0 b53f 9f3f 18f0 8a3f
000001c0: 0893 0a3e 925d 40be ca36 e83e 80a9 903e
000001d0: 3841 91be fe0a 41be 80a4 9b3c ed6e 80bf
000001e0: 8c5a 80bf f038 1ebe b3c6 723f 3557 bc3e
000001f0: 9764 98bf 3d42 b4bc c8f2 4abe 54b1 3a3f
00000200: 355c 0cbf c75e 3e3f 6c7f df3e f4f7 efbf
00000210: 8304 e3be c79d 583d 84fb 6bbe 7a3a e43f
00000220: 746e a33e e6b8 3dbf 4ca1 98be 09df 6fbe
00000230: 6ec8 703e f55c e7be 69e0 68be 6e8f 893d
00000240: 0b0b b9bd 1f41 90be 0cf0 b63d 0704 52bf
00000250: 7fa7 c83e ce87 ffbe b521 47bf 5c4b 07bf
00000260: 9a02 80be dc98 c8bf 8a8b 50bf 6401 c53f
00000270: e106 00bf 9542 103f c03e fe3d 489b b6be
00000280: 1dd2 e03d a220 5fbf b0e5 a0be 0d8d 4c3e
00000290: 709d 173c 4a2f f2bf 58cc 553e cebf bb3f
000002a0: acd2 81bf 9c67 1ebe dd49 4bbc 7a77 87be
000002b0: 6719 51be 3aad 203e 5ea3 b73d 25e5 a73e
000002c0: be63 243f 531a 8cbf 1cb9 a93e 63b4 17bf
000002d0: 5b65 edbe 773a a1bf 5765 80bf 880d ff3d
000002e0: 44f4 48be 3a8f f5be cc29 29bf 0608 b03e
000002f0: 7f90 513f ec7f f83d ca0d 933e 961a 16bf
00000300: 73ca 63bf 9584 ba3e 3f05 81bc 0b06 3d3f
00000310: 2f18 e33d fd80 5b3e 52e3 c2be 80d4 103e
00000320: 159a 33bd 1d75 1a3f ce37 903f a9f7 ff3e
00000330: 2ac0 7f3f fcc2 413f 21d8 84bf 0802 293f
00000340: f7f5 033f 951e 10bf 914e 223f b4a0 96be
00000350: 1107 eabe 060b 15be 4f8d ec3e 3af0 d8bf
00000360: e13c e2be 5763 a23e 2229 773f bec9 c5be
00000370: 9282 ba3f 5563 883d c10a b23e a025 7dbf
00000380: 7dc6 98bf c0f6 acbf 53d4 113f ee36 893f
00000390: a26e d83e 631e 26bf 0cb2 86bb a7a6 7a3f
000003a0: c64f b53e 52ec a2bf bc6b 81bf 7de3 1fbe
000003b0: 9c18 50be b830 803d b547 cc3e b4bf 87bf
000003c0: b946 02c0 6365 89be 032e 57bf 622d dbbf
000003d0: c079 4f3e f4bb 1abf 088c 093f 0ab3 c93c
000003e0: 5142 273f 31a6 8d3d 2281 a4be c628 ccbd
000003f0: 87e1 953d 1c73 36bf 1822 a6be 4ced 143f
-0.87016964 -0.3611618 -0.17511977 0.8935794 -0.5688012 0.100604236 0.36578006 -0.3996674
-0.31090268 -1.0321846 0.08462053 -0.0679038 -0.43913013 -0.029744543 -0.87214994 0.24839826
-0.34488997 0.64117235 0.68007326 0.5743257 0.08709449 -0.9772725 -0.53351986 -0.51301724
2.454584 0.41707507 0.7821309 -0.23071694 -0.4077473 -1.1084936 -0.09215544 0.268967
-0.14002225 -1.337819 -0.93522894 -1.3328255 0.296654 0.7282651 -0.01854051 -0.68213224
-0.38593143 -0.24034168 0.96751845 0.02785215 -0.34898835 -0.33302402 -0.01416156 0.4319059
-0.110896766 -0.0717744 -0.70661116 -0.27907446 0.6511737 0.40082535 1.6042868 -0.4149759
-1.2177138 -0.9352584 -0.3980443 -1.6437967 -0.19711687 0.7340089 -0.59784687 0.09246502
-1.0272282 0.8271692 -0.4892429 -0.08022324 -1.5256903 -0.5769109 1.5931224 -0.19436558
0.3200912 -0.64645207 -1.3647327 -0.45181885 -0.559511 0.042195223 0.6333507 0.4580049
-0.19669363 -0.19985986 -1.12394 0.33099872 -0.31915733 0.7752554 0.011500389 0.56486714
0.6469126 -0.49259064 -0.114785165 -0.4507201 1.0059001 -0.19174784 0.69759464 -0.49826393
-0.5781202 -0.25268102 0.24073276 0.060882166 -0.2071036 0.94249606 -0.098154396 -0.69005245
-0.4368579 0.08531808 1.1536692 0.35684833 -0.5315524 -2.3039055 1.2441317 1.0854521
0.1353265 -0.18785694 0.453543 0.28254318 -0.2837007 -0.1885185 0.018999338 -1.0033852
-1.0027633 -0.15451407 0.9483444 0.36785284 -1.1905698 -0.022004241 -0.19819176 0.7292683
-0.54828197 0.7436337 0.43651903 -1.8747544 -0.4433938 0.052884843 -0.23045164 1.7830346
0.31920207 -0.7411026 -0.2981056 -0.23424925 0.23513958 -0.45188108 -0.22741856 0.0671681
-0.090353094 -0.28174683 0.08932504 -0.82037395 0.3919029 -0.49908298 -0.7778581 -0.52849364
-0.25001985 -1.5671649 -0.8146292 1.5391049 -0.50010496 0.56351596 0.12414312 -0.35665345
0.10977576 -0.8715917 -0.31425238 0.19975682 0.009253845 -1.8920681 0.20878732 1.4667909
-1.0142417 -0.15469211 -0.012407747 -0.2645834 -0.20419846 0.1569108 0.08966707 0.3279201
0.64214694 -1.0945534 0.3314904 -0.59259623 -0.4636639 -1.2595967 -1.0030926 0.12453753
-0.1962443 -0.47960836 -0.660794 0.3438112 0.8186111 0.12133774 0.28721458 -0.58634317
-0.8898079 0.36429277 -0.015749572 0.73837346 0.11088597 0.21435924 -0.38064057 0.14143562
-0.043848116 0.6033495 1.126703 0.49993637 0.99902594 0.7568815 -1.0378457 0.66018724
0.5154719 -0.56296664 0.6340113 -0.29419482 -0.45708516 -0.14554986 0.4620156 -1.6948311
-0.44187072 0.31716415 0.9654714 -0.3863048 1.4571097 0.06659571 0.3477383 -0.98885536
-1.1935574 -1.3512802 0.56964606 1.0719888 0.42271906 -0.64890116 -0.0041105803 0.9791054
0.35412425 -1.2728369 -1.0111003 -0.15614124 -0.20321888 0.06259292 0.39898458 -1.0605378
-2.0355666 -0.26835164 -0.84054583 -1.7123225 0.20261288 -0.60443044 0.53729296 0.024621505
0.65335566 0.06916464 -0.3212977 -0.099687144 0.073184066 -0.7126939 -0.32447886 0.58174586

weight f4 [8]
00000000: 5272 e13f 1f53 0840 d62f 1340 c4e4 1040
00000010: 7016 0c40 28c7 0f40 b74f 1740 9a66 0440
1.7613013 2.1300733 2.2997947 2.2639627 2.1888695 2.2465305 2.3642404 2.0687623

bias f4 [8]
00000000: c4a9 68bd 239e a0bf c940 e4bf 519c 57bf
00000010: 8318 c3bf cfe4 eabf 78bb a2bf 9559 7bbf
-0.056802526 -1.254826 -1.7832271 -0.84222895 -1.5241855 -1.8351077 -1.2713461 -0.98183566

running_mean f4 [8]
00000000: 5261 7cc0 6678 16c0 f43f b8c0 e5cd 24c1
00000010: faf2 83be eea0 fec0 7fd5 0cc1 ed03 57c0
-3.94344 -2.3510985 -5.757807 -10.300267 -0.25771314 -7.9571447 -8.802123 -3.3596146

running_var f4 [8]
00000000: 430c e842 54d3 8242 0c09 5e42 1f4a 9042
00000010: 1c35 7342 3556 9f42 b833 9442 c073 b042
116.02395 65.41275 55.508835 72.14477 60.801865 79.66837 74.10101 88.226074

weight f4 [16, 8, 3, 3]
00000000: a56f f03e 722e 07be 82dc f93e f16f 363e
00000010: 0e57 043f 9566 cf3e 24b9 84be 5d1c 43bf
00000020: 67d2 453f ba05 183e 5be3 36bf 7901 ad3e
00000030: 05eb 5ebf ff59 12bf a0d0 5abf 97cd 6fbe
00000040: 6b94 093e 025c 91be b913 19bf 39da 3dbf
00000050: ee57 8ebe 6d70 2ebf adb0 84bf 4f2d 063f
00000060: 6b6f 843d be83 ffbe 1376 243f 1add 613e
00000070: 6031 003f 95de 95bf a9c1 4dbf c583 b5be
00000080: a300 a9be 5652 94be d60b 2d3d d251 05bf
00000090: cd13 30bf 32da 22bf 9ca0 adbe 5fd9 033f
000000a0: 6160 193f 3e8a 1dbf b72f 823d d217 9d3e
000000b0: 2698 7cbe 051c 623e 22d3 c9be ea74 4fbf
000000c0: b333 103f 9506 1dbf dc1a 63bf bef8 f1be
000000d0: 5cc9 9e3e f985 4fbe a4c5 87bf c8ce b1be
000000e0: 6a24 e03e d35a 25bf 7f03 0f3f 0129 113e
000000f0: a9ee e53e 51d4 df3e 585b d6be beef 9abe
00000100: 80f4 74bc 933e 12bf f12e 32bf 62fc 173f
00000110: 4e35 4dbe edf5 38bf e32b 073d 01db 45bf
00000120: 8797 1a3f a6da 3abf 5e48 19bf 937e 3fbe
00000130: 0218 673f 09ac 44bf ee82 12bf cef9 c0be
00000140: bd61 42bf df71 0fbf 85f8 ecbe ab20 653f
00000150: 1f16 19bf 3b64 1ebf 1c0b e03d 2695 67bf
00000160: a4f8 71bf f5f7 a4be 6531 693f 9620 a1be
00000170: 7ce5 75bf f1be 133e e34c eabe 76a8 aebe
00000180: 932e e53e f6b9 b5be ae35 5bbf 9701 363f
00000190: 6512 a23e 5417 56bc af09 333e c4f1 1cbe
000001a0: 86a6 4ebd 9ff2 59bf 8687 ae3c 9a73 c83d
000001b0: c221 013f 63c5 b8be 7ff2 463e 6955 623d
000001c0: 8662 5bbb c7f1 8abf a734 843c b037 563d
000001d0: 78b1 9ebe 4934 593f 100b 953e 2c0d 953e
000001e0: 805f e1be 1fd7 93be d8fe f1be 7424 86be
000001f0: ba96 793e d132 39bf 25d0 85bf 56da 8cbe
00000200: 83fb 883f eb12 1d3e 95ce 6a3f 774b bdbe
00000210: 4002 86bd 56d8 d63e a7ec f63e fa4f b4bf
00000220: dd12 003f a144 e7bf fd3a 1abf 48f9 cebe
00000230: a195 e3bc 23ec 82bf e1fe 78be ffc6 b03c
00000240: 9410 85be 2af0 2dbf b09a f03d e827 89be
00000250: c6f8 f13d bb60 8b3f 43b3 85be 45ec 843e
00000260: e532 bb3e 5f58 75be 9e37 9ebe 9005 403e
00000270: d91a 323f 7c1a 0dbf aaa1 65be 617e 643e
00000280: 8685 87be 724f 3c3e eec1 cdbe 89e4 1bbf
00000290: ae76 3cbd 5b18 1a3e be2b 023e 5242 b8be
000002a0: 9443 a43e eb19 4a3f 0f43 b5be 93f4 f3be
000002b0: aab0 8dbe 659d 0b3e ee6b 7e3f 2d0b 953d
000002c0: 0f23 1ebd e3e8 0abf 5bd8 3b3e f99f 1cbf
000002d0: ad3a c6be 68ea 68bf 9c09 dabe c278 b1be
000002e0: 2e37 0d3e bd06 71bf ba28 62bf 839f 8bbe
000002f0: 7aff f2be db64 213f 7fdb ec3e a938 7dbf
00000300: 655b e13e 0453 a9be 73f3 23bf fa22 dbbe
00000310: 5ab0 933f 2910 80bf c578 963e 0cf5 11bb
00000320: 4e39 843e 2ddf f3bd 194b 393c 9d1e 9bbe
00000330: 80e8 e4be d719 24bf 7a48 51bf 642d 94bc
00000340: 1fdf cf3d 395a b0be 5397 bdbe b796 48bf
00000350: bc6e 65bf 8812 0d3e 3cdd d63d 49a4 25bf
00000360: 6844 ad3d cbc9 fd3e d590 083f d102 c4be
00000370: 9370 74bd 5945 02bf a09b 99be 2488 26bf
00000380: e830 20bf 62fc 14bf e6af 80bd 2317 81bf
00000390: b1c3 10be 6ed2 cc3d 3a98 793e 7a99 22be
000003a0: 65aa cc3d 9e2a 143e cb90 d03c 0b13 d03e
000003b0: 7f3a 983e 5dfc 99be 0629 44bf b41d 84be
000003c0: c731 1fbe 0c28 09bf 2929 2e3f 2fcd fbbd
000003d0: b140 53bf abe4 63bf 08ef e03d 0655 a3bd
000003e0: 9a7a 853e 8d58 9fbd 794e 45be 78a6 7b3e
000003f0: 7dc9 3abf 5db2 a8be 5609 cc3d 2054 5a3f
0.46960178 -0.13201311 0.48801047 0.1781614 0.51695335 0.4050795 -0.259225 -0.76215154
0.77274173 0.14845935 -0.71440667 0.33790186 -0.8707736 -0.57168573 -0.85474586 -0.2341827
0.13435523 -0.2839051 -0.5979572 -0.74161106 -0.2780146 -0.681403 -1.0366417 0.52412885
0.06466564 -0.499052 0.64242667 0.22057 0.5007534 -1.1708552 -0.80373627 -0.35452095
-0.33008298 -0.28969067 0.042247616 -0.5207797 -0.68780214 -0.6361419 -0.33911598 0.51503557
0.5991269 -0.61539066 0.06356757 0.30682236 -0.24667415 0.22081001 -0.39418894 -0.8103777
0.56328887 -0.6133817 -0.8871286 -0.47260088 0.31013 -0.2026595 -1.060719 -0.34728074
0.43777782 -0.6459171 0.5586471 0.14175798 0.44908646 0.43716672 -0.41866565 -0.30261034
-0.0149508715 -0.5712673 -0.69602877 0.5936948 -0.20039865 -0.7225025 0.033000838 -0.772873
0.6038746 -0.7298988 -0.5987605 -0.18700628 0.9027101 -0.76825005 -0.5723103 -0.37690586
-0.75930387 -0.5603313 -0.46283355 0.8950297 -0.5979938 -0.6187169 0.10939619 -0.9046196
-0.9452002 -0.32220426 0.91090995 -0.31470174 -0.9605329 0.14428307 -0.45761785 -0.341129
0.44762096 -0.3549344 -0.85628784 0.71096176 0.3165466 -0.013067085 0.17484163 -0.15326601
-0.050451778 -0.85135835 0.021304857 0.09787674 0.50442135 -0.36088094 0.19428442 0.055257235
-0.0033475473 -1.0855035 0.016138388 0.0522992 -0.30994773 0.84845406 0.29110003 0.29111612
-0.44018173 -0.28875062 -0.47264743 -0.26199687 0.24373904 -0.72343165 -1.0454146 -0.27510327
1.0701755 0.15339248 0.9172147 -0.36971638 -0.06543398 0.41961926 0.48227426 -1.4086907
0.50028783 -1.8067819 -0.6024626 -0.40424562 -0.02778131 -1.0228313 -0.24315979 0.021579264
-0.2598921 -0.67944586 0.11748254 -0.2678826 0.11815028 1.0888895 -0.26113328 0.2596151
0.36562267 -0.23959492 -0.30901808 0.18752122 0.69572216 -0.55118537 -0.22424951 0.22313835
-0.26469058 0.18389681 -0.4018702 -0.6089559 -0.04601162 0.15048353 0.12711999 -0.35988098
0.32082808 0.789458 -0.35402724 -0.47647533 -0.27673846 0.1363426 0.9938344 0.07277522
-0.038607653 -0.54261607 0.18344252 -0.611816 -0.3871664 -0.90982676 -0.42585456 -0.34662443
0.1379058 -0.94150907 -0.88343394 -0.27270135 -0.47460538 0.6304452 0.46261212 -0.9891458
0.4401504 -0.33071148 -0.6404335 -0.42800122 1.1538193 -1.0004932 0.29389015 -0.0022271303
0.2582497 -0.11907802 0.011309409 -0.30296794 -0.44708633 -0.6410193 -0.81751215 -0.01808805
0.10149979 -0.34443834 -0.37029514 -0.7835497 -0.8962209 0.137766 0.10491416 -0.64703804
0.08460313 0.49568018 0.53345996 -0.382834 -0.05967767 -0.50887066 -0.30001545 -0.65051484
-0.62574625 -0.58197606 -0.0628355 -1.0085186 -0.1413715 0.10001074 0.24374476 -0.15878859
0.09993438 0.14469382 0.025459668 0.4063953 0.2973213 -0.3007535 -0.76625097 -0.25803912
-0.15546332 -0.5357673 0.68031555 -0.12294995 -0.82520586 -0.89020795 0.109830916 -0.07975201
0.260701 -0.077805616 -0.19268216 0.24575222 -0.72963697 -0.3294858 0.09962718 0.85284615

weight f4 [16]
00000000: 675c 5a40 3864 4240 87d9 1540 ca6d 0340
00000010: ad88 3140 f100 2d40 ed7f 2f40 b837 1140
00000020: 3cf7 6c40 08a9 8740 5736 8340 e5d1 8240
00000030: c870 7e40 bf28 6e40 3955 8040 7f11 7240
3.4118898 3.0373669 2.3414018 2.053576 2.773967 2.7031825 2.742183 2.2690258
3.70259 4.2393837 4.1003833 4.088122 3.9756336 3.721237 4.010403 3.7823179

bias f4 [16]
00000000: ea46 83bf 3ea5 a3bf 6642 cabe 8e9a 99be
00000010: a1e6 99bf 244d 43bf 7b26 07bf 23f6 16bf
00000020: 2892 84bc 0956 16bf 68cd f8be f928 363e
00000030: acc9 92be 01d9 2ebf 965a 91bd b673 863e
-1.0256016 -1.2784803 -0.39503783 -0.30000728 -1.2023507 -0.7628958 -0.5279309 -0.58969325
-0.016182974 -0.5872503 -0.48594213 0.17789067 -0.28669488 -0.6829987 -0.07097356 0.26260155

running_mean f4 [16]
00000000: a9aa 95c0 d03a aac0 7b51 56c0 707f 60c0
00000010: f7f2 5b3e 3279 58c0 2e50 4ac0 0fce 4ac0
00000020: 5d33 79c0 d0f3 92bf 4e9c b3c0 d0cc 453f
00000030: cfb5 b2bf 3f5f 4e3e 8ab3 8dc0 bca1 08be
-4.6770825 -5.3196793 -3.3487232 -3.5077782 0.21479402 -3.3823972 -3.1611438 -3.1688268
-3.89376 -1.1480656 -5.61283 0.77265644 -1.3961734 0.20153521 -4.4281664 -0.13342947

running_var f4 [16]
00000000: 90d5 6141 b2c4 5541 439f 6541 5766 2341
00000010: 45a6 3541 511a 8241 83d8 ae41 de77 0941
00000020: 548d b041 f941 2141 e601 2341 2ce7 3841
00000030: 9518 0841 5554 f740 8538 6f41 c723 2541
14.114639 13.360521 14.351382 10.212485 11.353093 16.26285 21.855719 8.591764
22.069008 10.078607 10.1879635 11.556438 8.506001 7.7290444 14.951299 10.321235

weight f4 [64, 96]
00000000: afbd 7ebd 9365 923d 871c 7a3d 05bf 4d3d
00000010: e354 683c c569 323d 2a6e 893d 76a2 5ebd
00000020: ed8a a1bd 94da 04be 95d2 f73d bcdf ffbc
00000030: f51f 9ebd e62f eb3d c593 61bd 2080 073d
00000040: f29b bf3d 61d0 08bd 198b 5a3d 8b2b 633d
00000050: b9d9 2bbd 18d7 17bc 17e5 57bd 5a1b 073c
00000060: 0bb6 d7bc c232 fdbd 2a9e 143d b075 c4bc
00000070: 1216 b33d 6cf4 3e3d 7f75 a93d 0e01 a6bd
00000080: e524 c03c b9b4 f33d 4c4b 0a3e f406 a13d
00000090: 5daa 89bd ddda 61bd 535e 933b 54be 953d
000000a0: 11d4 60bc 395b 833d 6f2a 5bbd 7811 e8bc
000000b0: a028 8dbd 95db bdbd a054 fbbd 1604 1b3e
000000c0: 1358 adbc 58f0 9dbd f8bc 673d af5d 233c
000000d0: 4784 32bd 979f bebc 7d23 813c 4895 2abd
000000e0: a66b 5fbc 9701 9e3d 903a 5cbe ca01 73bb
000000f0: 1060 713c 3038 9cbd b858 b9bd bb83 3a3c
00000100: 183a b83d fae1 953d a9e4 acbd 6ae1 9e3d
00000110: 6cff 5d3d eed3 71bd 00f0 4fbd 1aa9 8b3d
00000120: 3a33 24bd 9b28 ad3d 7c77 c93c e075 b63d
00000130: 88ee 653d 131a c1bd f301 7fbd d3c1 413d
00000140: 78ce eb3d 2c5a 3dbd a66c 18bd 7231 3dbd
00000150: 806c b3bc 72a2 ddbb 83e2 4f3c d68a 4b3d
00000160: 234b 383d e9ec 0f3d a9ff 0c3d f113 da3d
00000170: 1988 8abd 3834 55bd 9491 1c3d c5c0 97bc
00000180: 79af 1cbc 2b46 0abe 3ff4 933d 589e 083e
00000190: a438 2bbd 3d0a fdbd 4894 8a3d 8b52 fb3c
000001a0: 74b1 8dbd c96e 653d 61bc 163e 01dc f0bd
000001b0: c904 493e 2031 0d3e 3fa6 ec3d b150 793c
000001c0: 09fa a9bd 64d5 42bc 0898 b0bd f4e3 18bd
000001d0: 62f4 823d 02e6 03be c5c0 6bbb 89e4 d3bd
000001e0: c26c 133e 0124 703c dbbc b03d f1cf 49bd
000001f0: 96e5 ccbd 6e7d 5e3d 08bf ff3d b7b5 8bbd
00000200: 9988 d03d 4988 c1bc 39da 183e 546b cfbd
00000210: 0d5b 0d3c d03c fabc 95d2 d6bd 0806 fa3c
00000220: b510 7a3d 04df fc3c aba8 e6bd fe7e 973d
00000230: d276 8e3d 89e7 1c3e 54a4 a93c e838 57bd
00000240: 9d70 3b3d 5ca7 9e3d c1b2 9c3c fbf6 6ebd
00000250: 4d81 35bd 1af3 ab3d 7a47 673d edeb 31be
00000260: 74d0 bcb8 6a77 f2bd f418 81bd 7ad3 13be
00000270: 0912 823d 415b 423d 51d7 c2bb d377 1bbc
00000280: 5a40 f1bd 8733 11bd d8a5 be3d e950 213d
00000290: 3510 c33d d0a1 1bbd 026c 8b3d 6171 4a3e
000002a0: 3b6d 7e3d fd1b 50bd 93ac 443d 51f8 053d
000002b0: 8903 61bd b10f d4bd 3338 bfbd d1f7 64bd
000002c0: 2103 85bc a56e bfbd 9943 d83d 9228 dfbd
000002d0: d7fb 8cbd 49c4 9dbd 743d cc3d d42b 633d
000002e0: 3ecf 53be ae4a 61bd fe28 353d 8354 09be
000002f0: 9475 8fbd 98fa 173d cfea 49bd da6e 593c
00000300: 67a8 e9bd ac97 fd3d 2f67 b33d e087 b7be
00000310: ac09 08be 8fc3 c03d 67cd eebd 9134 cbbb
00000320: 4686 a6be 6878 32be 6351 9cbd 355f 193e
00000330: 92fb 61be aeff 01be e37f c2be 69d1 4b3e
00000340: cefc bb3d 9253 3e3e acda 363d fb5d 08bc
00000350: fa4f 3b3e a8f3 33be 2d9d 45be 678d 59bd
00000360: 417a 393e 5f7a b33c e008 69bd e259 31be
00000370: bc55 8e3e 1371 113e d5cf 7c3d 726b 74be
00000380: 18dc 44bd 3283 2d3e 848f 623e 0c5c 653e
00000390: beab 223e d772 12bd 35be 603e 9a08 723d
000003a0: a60f da3d 0e2c 33be 870f 7c3d 9e47 9fbd
000003b0: 0f4b d7bc e17a d23d 9dc2 01be c03c 1f3e
000003c0: 556e 903d e3a2 e5bd 6d48 0bbe 2559 243e
000003d0: 4a27 94bc e4aa 90bd 7d91 ff3d 3b11 853d
000003e0: f974 2b3d 6460 11bd 3e7c 0ebf a781 d33c
000003f0: 0b2e 48be 01cf 213e 38b2 603c 27e4 813d
-0.062192615 0.0714828 0.061062362 0.050231 0.014180395 0.0435579 0.06710465 -0.054354154
-0.07887826 -0.12974006 0.12100712 -0.031234615 -0.07720939 0.11483745 -0.055072565 0.033081174
0.09355916 -0.03340185 0.05335531 0.055461448 -0.041955683 -0.009267591 -0.05270871 0.008246267
-0.026331922 -0.12363197 0.03628365 -0.023981899 0.08744444 0.046619818 0.08274364 -0.0810567
0.023455093 0.118997045 0.13505286 0.07862654 -0.06721947 -0.055140365 0.0044973283 0.07311693
-0.013722436 0.06413884 -0.053507265 -0.028328642 -0.06892514 -0.092703976 -0.12272 0.15138277
-0.021160161 -0.077118576 0.0565767 0.009971066 -0.04358318 -0.023269458 0.015763992 -0.041646272
-0.013636505 0.07715147 -0.21506715 -0.0037079924 0.014732376 -0.076279044 -0.09050125 0.011383946
0.089954555 0.07318492 -0.08442051 0.07757838 0.054198667 -0.059040003 -0.05076599 0.06819363
-0.040087916 0.084550105 0.024593107 0.089092016 0.056135684 -0.094288014 -0.06225772 0.047303986
0.1151399 -0.046228573 -0.03721299 -0.046189733 -0.021902323 -0.0067637498 0.012688282 0.04969295
0.04499353 0.035138045 0.034423504 0.10648335 -0.0676424 -0.052051753 0.03822477 -0.018524537
-0.00956332 -0.1350333 0.072243206 0.13341653 -0.041802064 -0.123554684 0.06766564 0.030679008
-0.06918612 0.056013856 0.14720298 -0.117607124 0.19630732 0.13788271 0.115551464 0.015216992
-0.082996435 -0.011891697 -0.08622748 -0.037326768 0.063942686 -0.1288071 -0.0035973054 -0.10346324
0.14396957 0.0146570215 0.08629771 -0.049270574 -0.100047275 0.054318838 0.12487608 -0.06821769
0.10182304 -0.023624556 0.14926995 -0.10127893 0.008627665 -0.030546576 -0.10489384 0.030520454
0.06105109 0.03086806 -0.112626396 0.07397269 0.06956257 0.15322699 0.02070824 -0.052544504
0.045761693 0.07746765 0.019128205 -0.058341008 -0.044312764 0.08395977 0.05646465 -0.17375155
-9.003366e-05 -0.11839183 -0.063035876 -0.1443614 0.06351096 0.047450308 -0.005946078 -0.009489018
-0.11779852 -0.03544953 0.09308976 0.039383803 0.095245756 -0.037996113 0.0680771 0.19769813
0.06211589 -0.05080794 0.048016142 0.032707516 -0.054935012 -0.103545554 -0.09336891 -0.0559004
-0.016236844 -0.09347276 0.10559768 -0.1089641 -0.06883972 -0.07703454 0.09972659 0.05546172
-0.20684525 -0.05500286 0.044228546 -0.13411145 -0.07004848 0.03710422 -0.049296197 0.013271058
-0.11409073 0.12382445 0.08759915 -0.35845852 -0.1328494 0.094123 -0.11660271 -0.0062013348
-0.32524318 -0.17428744 -0.07632711 0.14977725 -0.22068623 -0.1269519 -0.37988195 0.19904102
0.09179078 0.18586567 0.044642136 -0.008323188 0.18292227 -0.17573416 -0.19298239 -0.053113367
0.18113042 0.021908937 -0.05689323 -0.17319444 0.27799785 0.1420329 0.06172164 -0.23869112
-0.04806146 0.16944578 0.2212506 0.22398394 0.15885827 -0.03575405 0.21947558 0.059090234
0.10647516 -0.17497274 0.061538246 -0.07777332 -0.026280908 0.102773435 -0.12671895 0.15550518
0.07052294 -0.11212709 -0.13601847 0.16049631 -0.01808514 -0.07063845 0.124789216 0.06497427
0.0418596 -0.035492316 -0.5565833 0.025818659 -0.19548814 0.15801622 0.013714366 0.06342345

bias f4 [64]
00000000: 2973 b7ba 736b 46bd 3dea 513e b8ab 523e
00000010: 1b95 44bd 1375 c83d 1d1a 6f3d 7511 0c3d
00000020: 6c65 d73d ccc3 efbc a074 113e 8e85 bfbc
00000030: 60af 833e dde6 1ebd abb9 133e 29aa 983d
00000040: 2d60 123d bb08 6a3e 8b46 f23d c55d 4f3e
00000050: 8e4a 6ebb 2d73 af3d 652f 8d3d 6e84 ee3d
00000060: d788 ef3d f97f 3d3e 9f11 67bd b0e8 5ebc
00000070: 892f f73d 9dfa 7e3d 17a1 f33d 7ee5 cabd
00000080: 2e3b a43e 34c7 403d 9b40 443e 6d3a f23d
00000090: a88b 413d b480 9b3e ddf1 26bd 7504 cdbb
000000a0: 4955 a53e 763b abbd 55b7 9ebc cdf7 473e
000000b0: bebc e33d 59c7 743e 63b2 383d 8540 393d
000000c0: c226 1f3d fe4a 083e 2079 cb3b 23d7 b33e
000000d0: f657 183d 6c22 7e3d 30b8 ac3d ca12 6bbd
000000e0: a996 30bd e074 fa3c b7d6 b7bc cc66 b33e
000000f0: ff8a 233e 6a54 503d bac9 883c 125d bdbd
-0.0013996112 -0.048442315 0.20499511 0.20573318 -0.04799376 0.09787955 0.058374513 0.034196336
0.105173916 -0.029268168 0.14204645 -0.023379114 0.25719738 -0.038794387 0.14426295 0.074543305
0.03573625 0.22854893 0.11829861 0.20250614 -0.0036360356 0.0856689 0.068938054 0.11646353
0.11696022 0.18505849 -0.05641329 -0.013605282 0.120696135 0.062250722 0.1189596 -0.099070534
0.320764 0.047064975 0.1916527 0.1182755 0.047252327 0.3037163 -0.040758003 -0.006256635
0.3229163 -0.08360951 -0.019374529 0.19528122 0.11119984 0.2390417 0.045091998 0.045227546
0.03885532 0.13309857 0.0062095076 0.35125074 0.03719326 0.062044546 0.084335685 -0.057390966
-0.04311243 0.030573308 -0.022441251 0.35039365 0.15970992 0.050861754 0.016697753 -0.092462674

weight f4 [1, 64]
00000000: 8aaa 343c 8d0a 0abf 60da 1b3f cee0 8b3f
00000010: 4914 0bbe 2bcd 06be d5c2 813e 4756 433e
00000020: 4e0a 0f3f 3239 a13e c38a 5d3f eb00 923e
00000030: 70af 9ebf c06a bd3d 8075 7bbf f981 babe
00000040: 5d1b 253f da95 1f3f 9624 5a3f 7408 65bf
00000050: 90d4 5dbd 5f86 44bf 7e68 03be 30ef 74be
00000060: c3bd 2b3f 7cb6 4dbf bfa3 6e3e 755f 6b3e
00000070: 327e 4fbf 663c 17bf 9402 f1be 2f85 b7be
00000080: 7763 e3bf 33f3 273e 2604 163f 4c3f 843f
00000090: ed49 adbe 6349 82bf 9105 253f b3f5 a9be
000000a0: 9f6c aebf 4c38 663c f987 81be b0ec 60bf
000000b0: 04b2 a03e 5035 2a3f e723 5bbc 8296 033f
000000c0: a6c4 c43e 48b2 b7be e7e7 87bf d467 8c3f
000000d0: 7109 6c3e b76b c83e a119 82bb 5ccb 36bd
000000e0: b9a7 133f 749e 57be 57c7 42c0 9bac 7f3f
000000f0: 267d 7f3f 7b79 bbbe f295 3c3e 7aba a83d
0.011026988 -0.5392235 0.6088009 1.092798 -0.13581957 -0.13164203 0.25343958 0.19075881
0.558751 0.3148895 0.8653986 0.28516325 -1.2397289 0.092488766 -0.98226166 -0.36427286
0.6449488 0.6233803 0.85212076 -0.89466023 -0.054157794 -0.76767534 -0.1283283 -0.23919368
0.6708643 -0.80356574 0.23304652 0.22985633 -0.81051934 -0.59076536 -0.4707228 -0.358438
-1.7764729 0.16401367 0.5860008 1.0331817 -0.33845463 -1.0178646 0.6446162 -0.33195266
-1.3626899 0.014051508 -0.2529905 -0.87861156 0.31385815 0.664876 -0.013375259 0.5140153
0.3843128 -0.35878205 -1.0617646 1.0969186 0.23050477 0.3914468 -0.0039703404 -0.044627532
0.576778 -0.21056539 -3.0434167 0.9987275 0.99800336 -0.3661612 0.18416575 0.082386926

weight f4 [64, 96]
00000000: d9f7 c23d b975 4cbd 166f 7c3e 8b39 0a3e
00000010: bd44 ecbd 6f46 9fbd 194e eabc 3dcf d93d
00000020: 0c2f bb3d 4fe1 c33d 515f 8dbe 24bf 3abc
00000030: 32b9 d13d 7677 563d 35c9 2d3e 096a 66be
00000040: c414 283b d737 d3bb d8e3 893d 46cc a4bc
00000050: 85a9 61be 2455 10bc d836 9abe 0dfb 623e
00000060: f217 0fbd 3c04 823d da2e c63d 8f22 77be
00000070: 4d11 3fbe a728 6abd e247 f1ba 3a83 8c3e
00000080: 9ca1 293e 3b9f cc3d 9185 17be 93a8 9a3d
00000090: c765 fb3d f62a d7ba 47ae 0e3e 81da f93d
000000a0: c49c 183e 243a 30bd dcc3 80bc 5c8f 103e
000000b0: a9d5 423d 8326 6cbc b0a7 66bd 188a e9bd
000000c0: fe10 e6bc 9d0d b1bd 31c7 1fbe 5081 df3d
000000d0: 4211 18be 298e f23d 1869 e7bd c826 593d
000000e0: 9d7d 06be 9c54 8fbd 76f6 a6bc 2f0e 0f3d
000000f0: d92a fb3d 51c4 0abe 5c8f f63d 11e5 debd
00000100: 93db 2c3e e351 253e 3aeb 373d b479 a9bd
00000110: 4e8c ba3d d53d 25be 39db 45bc b2ca dfbc
00000120: fb5b 66bd d35c 673d 152b b6bd 5ef8 77bd
00000130: 617b d8bd a66d 233e ec6a 30be 6c27 8abd
00000140: bd64 3bbb 3722 3abc aca0 c73d bf3f a13e
00000150: 5752 c83c d0ff 2bbd 669d 4ebe 39c3 4e3e
00000160: cdf9 733d 7109 853c aa58 e03d 1c93 e7bd
00000170: 32a9 0cbe 0aed bb3d 1a5e d43d a3f9 263d
00000180: ee4c 3abe 467d a13e 56ed 533e cbb9 683b
00000190: 3262 c43e 131f 6dbe 6129 b33e 1279 a1bc
000001a0: 869a ab3d 0416 fdbd bcda f0bd 8a75 6d3e
000001b0: 2e47 82bd 59d1 d73e 1274 523e 3ef7 db3e
000001c0: 23ed 1f3e 07b7 593e f2ab e73d a264 76bd
000001d0: 3abf 0b3e f01c a3be 9827 cd3e 53e3 993c
000001e0: 267b 523e 1e01 43bd 8433 dd3d c981 413d
000001f0: 59cb 10be 6e98 33be df4f 00bd 0c62 8dbc
00000200: 674c c83c 00c9 71bd 7b67 f23d f14f a9be
00000210: 8e4f 2f3e 3100 a7bc 2734 16be 153d 5a3d
00000220: 8844 e1bd 87d8 b73e bed2 aa3e 0a13 ebbd
00000230: 44a7 933d b0c9 6d3d 9523 7a3e 888d 57be
00000240: a844 9b3e 6d50 5d3e 311e 163e de73 9c3c
00000250: 3848 13be 3d85 15be 5595 71bd 4b63 e33c
00000260: 8325 3cbe 3785 c0bd 81dc 11be e3e1 a33e
00000270: f597 f33d 3997 46bd b62e e6bd a84b 123d
00000280: b21b 2fbd 5600 cf3d 0476 2cbe 4acb 8dbd
00000290: 02d1 58be 365f 9d3d a0cb 7fbe bb8e 83bd
000002a0: 228e 1a3e efcc a23d 81bb ed3e c587 5a3c
000002b0: a710 cfbc 442f 543d 8237 2dbe 879a 6dbe
000002c0: 8ecb 8f3e 55f5 54be f708 0e3e 36dc c4be
000002d0: b50c 4dbe b146 a0be 87c8 b33d 3dd2 4bbe
000002e0: afc3 ae3d 68d9 b83d 18ba 333d d209 dabd
000002f0: cd98 71be 0f49 84bc 09bf fcbd 87c7 12be
00000300: 03e6 47be 0392 863d a3fd 0abe e644 f3bd
00000310: c771 4b3e 06e9 413e 619d 02be a8ae 2f3e
00000320: 9dd7 a93d 626b ffbe efb1 12be 017b a3be
00000330: 111c 693e fe2d 18be 94de fc3d 4116 92be
00000340: 94ff 59be 4cdb 663e b56d 9abd f571 0d3d
00000350: 8b6b 12be 483c 963e 9507 53be 42ef 23bc
00000360: 6680 0c3e 768f 4ebe 10ed cebd b83a 06bd
00000370: 5fd2 2e3c 2fe4 2d3e 4a9d 033e e761 013e
00000380: f120 833e ae0c 0fbf 55dd 7ebd 85b2 7ebd
00000390: 57ab 32bd 1aec 7dbe 0b71 263c 3c69 3d3e
000003a0: 41e6 243e 68eb 29bd 7e54 183e 6457 e2be
000003b0: 1509 06be 0b19 08bd 131c c5ba 2af3 efbd
000003c0: b3c4 b0bd 6dfa ff3e 2e96 2d3d 18d9 53bd
000003d0: cede f33e c29b 0d3c 6cb5 96bd 09df 7f3d
000003e0: 914f 8cbc 38a1 ea3d 0c15 1f3e 67f4 c63c
000003f0: 9dfb ffbc af47 bc3c 5857 41bd 8e1c 95bc
0.095199294 -0.049916957 0.24651751 0.13498513 -0.11536548 -0.07777106 -0.028601693 0.10635231
0.09139833 0.095644586 -0.27611783 -0.011398111 0.10240401 0.05236002 0.16971286 -0.22501387
0.0025647143 -0.0064458656 0.06732911 -0.020116936 -0.22037323 -0.008809362 -0.30119967 0.22166081
-0.034934945 0.06348464 0.09676905 -0.24134277 -0.18658943 -0.057167675 -0.0018408264 0.27443868
0.16565555 0.09991308 -0.14797045 0.07551684 0.12275272 -0.0016416002 0.13933669 0.121998794
0.14903551 -0.043024197 -0.015718393 0.14117187 0.047567043 -0.014413479 -0.056312263 -0.114032924
-0.028084274 -0.08645175 -0.15603329 0.10913336 -0.14850333 0.11843521 -0.11299342 0.0530155
-0.13133855 -0.0699856 -0.020381194 0.034925636 0.12264032 -0.13551451 0.120390624 -0.10883535
0.16880636 0.16144519 0.044902064 -0.08275166 0.09108792 -0.16136868 -0.012076193 -0.027318332
-0.056240063 0.05648501 -0.08894936 -0.060539596 -0.10570408 0.15959796 -0.17228287 -0.067458004
-0.002859398 -0.0113606965 0.097474426 0.31493947 0.024453325 -0.04199201 -0.2017723 0.20191659
0.0595644 0.016239854 0.10954411 -0.11307356 -0.13736418 0.09176071 0.10369511 0.040765416
-0.18193409 0.3154089 0.20696005 0.0035511132 0.38356167 -0.23156385 0.34992507 -0.019711051
0.083790824 -0.12357715 -0.1176047 0.23189369 -0.06361233 0.42151907 0.2055209 0.42962068
0.15617804 0.21261226 0.11312093 -0.060154565 0.13647166 -0.31858015 0.4006927 0.018785154
0.2055479 -0.047608487 0.108008415 0.047242913 -0.14140071 -0.17538616 -0.03132617 -0.017258666
0.024450494 -0.05902958 0.118361436 -0.33068803 0.17120191 -0.020385833 -0.14668332 0.05328091
-0.109993994 0.35907385 0.3336391 -0.11478241 0.07209638 0.058053672 0.24427636 -0.21050084
0.30325818 0.21612711 0.14659955 0.019098219 -0.14383018 -0.14601608 -0.058980305 0.027757308
-0.18373685 -0.09400409 -0.14244272 0.32008275 0.11894218 -0.04848406 -0.11239378 0.035716683
-0.04275102 0.10107486 -0.16841894 -0.0692354 -0.2117348 0.07684176 -0.2498002 -0.06423708
0.15093282 0.07949244 0.46432117 0.013338034 -0.025276495 0.05180289 -0.16915706 -0.23203479
0.28084987 -0.20796712 0.13870607 -0.38449258 -0.20024379 -0.31303933 0.08778482 -0.19904418
0.085334174 0.09025842 0.043878645 -0.10646404 -0.23593445 -0.016148118 -0.123411246 -0.14333926
-0.19521336 0.06570818 -0.13573317 -0.11878376 0.19867621 0.18936548 -0.12755348 0.1715647
0.08293078 -0.49886614 -0.14325689 -0.31929782 0.22764613 -0.14861295 0.12347141 -0.28532603
-0.21288902 0.22544593 -0.07540456 0.034532506 -0.14298837 0.29342866 -0.20608361 -0.010005774
0.13720855 -0.20171914 -0.1010381 -0.032770842 0.010670274 0.16981576 0.1285297 0.12635003
0.2561107 -0.5587872 -0.062222797 -0.06218197 -0.043620434 -0.24797097 0.0101587875 0.18497175
0.1610346 -0.041484267 0.14875981 -0.442073 -0.13089402 -0.033227008 -0.0015038274 -0.11716302
-0.086312674 0.49995747 0.04237955 -0.05172071 0.47630924 0.008643093 -0.07358822 0.062468562
-0.017127784 0.11456531 0.15535372 0.024286462 -0.031247908 0.0229834 -0.047202438 -0.018202092

bias f4 [64]
00000000: b8ae e43b 834a b33d 9754 b03d ce80 033e
00000010: b70b 04bd 5089 0fbd f589 c33d 06ea 1ebc
00000020: 8216 db3d 76e3 f73d 324d 033d 3b73 ba3d
00000030: 7ee0 a43d 7884 70bd edea 843d b05d 443e
00000040: 3ac0 a9bd fe6f 52bd b68e b9bd 07f4 c63c
00000050: 7302 b43c d71c aebb 7971 8dbd a2b2 c6bc
00000060: 539a d93c 874c 83bd 7d22 12bd 1a70 453d
00000070: fc25 53bd 04c1 cf3b 238a e33c e9b7 623d
00000080: da74 0d3d e775 533d ae2b d33d c365 033e
00000090: c445 0e3c 626b 073d 1db8 173e 74cb ec3c
000000a0: 6022 823e fc9a 33bd 9834 30bb 8bc3 2f3e
000000b0: 0c54 eb3d a021 c43b 6088 823c 9170 2abd
000000c0: 324b 283e 1514 99bd e66a 5abd 67b4 65bd
000000d0: 9100 903d 38d2 103e 7aad 82bd aa77 18bc
000000e0: 179a 4fbc ab91 11bc 3160 4f39 3b14 eabd
000000f0: 9371 1c3e c112 33bd 981e af3d 7247 bfbd
0.006978836 0.08754446 0.08609884 0.12842104 -0.032237735 -0.03504306 0.095477976 -0.00969935
0.106976524 0.121039316 0.03205604 0.0910401 0.08050631 -0.058720082 0.06490121 0.19176364
-0.082886174 -0.051376335 -0.09060423 0.024286283 0.021973824 -0.0053134966 -0.06906409 -0.0242551
0.026562845 -0.06411081 -0.03567742 0.04820261 -0.051549897 0.006340148 0.02777583 0.05535117
0.034535266 0.051626112 0.103110656 0.12831788 0.008683626 0.033061393 0.14816327 0.028905608
0.2541685 -0.043848976 -0.0026886817 0.17164437 0.1149064 0.0059854537 0.01593417 -0.041611258
0.16434935 -0.074745335 -0.053324603 -0.05608025 0.07031358 0.14142692 -0.06380744 -0.009305874
-0.012671015 -0.008884828 0.00019776892 -0.1142964 0.152777 -0.043719057 0.08550757 -0.09339799

weight f4 [8, 64]
00000000: d0f4 11bf 8115 fc3e bf95 2abc 0ae9 48bf
00000010: 9e4e bbbe 330d 01bf 76fe 3f3e ced5 7a3e
00000020: fc68 443e 3bde 343e ac33 72be c131 403e
00000030: 6852 333f d671 a93e f2f4 92be b2e0 4f3d
00000040: 8537 fe3d 8e72 2cbe ad94 b5bd 35dc aa3e
00000050: 7682 8fbc 396d babe 4508 b1bd 6e1a febe
00000060: 5c1e 873e 4c50 c43e c5a7 0a3f f611 9e3d
00000070: 3a81 8a3b 1794 bf3d 163d 84be ccfb 54be
00000080: bd49 c03e 4e34 53be 91be 053d 0da1 513e
00000090: ab49 7e3e 0ae4 723d f0d9 59bf 44fe 9c3e
000000a0: ea49 2e3e 97f7 ddbd c2cb b13e 0dde 96bf
000000b0: 43e5 cbbe 40f7 843c 3850 82be 42f6 fbbe
000000c0: 7029 763c 3ecf b93e d8e6 613e 01e5 753f
000000d0: d7f8 afbd f3e5 2e3f 0e41 223e 01df a3be
000000e0: 9af4 9fbe 8fe4 82bb 49fb 72be 5ef7 b8be
000000f0: 763f a0be 12e9 c63e 38d1 f13e 4183 29bd
00000100: 42a1 063f d0cf 123e f830 473f 817b d43e
00000110: 4fde 87be d91e 103f cc78 0bbf f23d 063f
00000120: cf29 463e de43 74be a7ca 89be 0e0b 103f
00000130: 1f7d 963e 44ca 233f 15b5 60be 9f59 97bc
00000140: 8bb3 003f 3acc 9dbd 8795 b93d 17df 6c3e
00000150: dbee e6bd 4ea6 053f ac20 7dbe 554a 8f3e
00000160: 943b 353e 3744 9ebd 723f 30bf d92e f9be
00000170: fe6a eabb fd2c cebd 485d e5bd 7b4c 413f
00000180: 2b5b d83d 1c83 4b3e 6b89 373f 5ea4 513e
00000190: aceb 173f 2ca3 653e 54be debe 031f 323f
000001a0: cd1e d2bf 98ac 5a3c ba59 bc3d 2536 b2bd
000001b0: efe8 053f 2fba e83e 51c8 1c3f 5bfa 5f3f
000001c0: 3ecc eebe b736 103f 774e 93bd af5d 51bd
000001d0: 29f4 08bf dd82 cb3e c7f8 433f ba69 c03e
000001e0: 4c66 aabe b902 1d3e 0ebb 2dbf da55 833f
000001f0: ccce b53c 5570 f13e c8ad 62be ad0f a63e
00000200: faab 51bd 0009 90bf 01a3 463e 8704 853f
00000210: 0140 733f 5cc0 2d3e f152 1d3e 9016 a1bf
00000220: a605 273f e4cb dabd 81a1 fcbd 125c f2bd
00000230: 3623 3c3f ff34 cc3d dd17 9e3d 45ad b5bf
00000240: 9b80 b13e 7ea8 c5bd 18a9 9e3d e4ec 68be
00000250: 45ef 4d3c 444a b73e 4f51 923d 0449 8ebe
00000260: 43d2 64bf e559 5cbe 89eb 153e 1f5f b7bd
00000270: d0e7 a73f 7236 4fbe e17c f73c fc3e 79bf
00000280: d581 1cbf 0c65 3b3e 838a a7bf 9274 b3bf
00000290: 5500 4dbf 9c7d d2be d2aa 603f e0e9 b1bf
000002a0: 4bfb 603e 8cef 5bbe 0015 d9bd 8fd9 143f
000002b0: 52dd f03e 8280 16bd 1358 90bf f23f da3e
000002c0: 78c9 b7be b1e1 933d 49c7 98be d318 21bf
000002d0: 4257 84be 5fdc 7dbf 450d fabe a011 efbd
000002e0: e5ec b8be 7f23 ab3e 986e 213f c939 403f
000002f0: 0791 4d3e 4a44 1dbc 03aa 29bf 6faf 343f
00000300: 0ce5 cc3e 73a3 e6be c0af 6dbf 9286 e73e
00000310: 9219 cebd 5657 aabe da4d 85bf cd4b c2be
00000320: ab3e 3a3f b023 8e3e d313 3e3f 809d cabd
00000330: cea8 423f 35dc 00bf 3361 d4b9 8fa8 813e
00000340: 981d 1f3d 9fd9 cabd 966f 31be 830a 85bf
00000350: b360 a3bc af8f b3be 633b 6d3d 656a 363f
00000360: bbbb f23e 7caa 3d3e 0995 c43e 0aaf 84bf
00000370: 98f4 833e 195a babe e2ce 533e da81 18bf
00000380: f1d5 c2be 3848 c13e 9b61 a63e 8f9b 413f
00000390: 569e b43e 0df7 f1be 9513 2b3f 2496 64be
000003a0: e478 423f 990d 87be a4bc 91bf 6c4f 533f
000003b0: 036d ff3e 8e80 713b f845 06bf 9eee 803f
000003c0: f97e d63e dc13 81bf aa96 4bbf 9754 95bf
000003d0: a90b 9c3d 9f7c 773f 86c7 9fbf d73e a1be
000003e0: 2dd0 183f bdc1 adbf 835f 953f f249 9dbf
000003f0: 3a8b 933e 7deb adbf 7fdd 0b3f 7754 913e
-0.5701418 0.49235156 -0.010411679 -0.7848059 -0.36583418 -0.50410765 0.18749413 0.24495623
0.19180673 0.17662899 -0.23652524 0.1876898 0.70047617 0.33094662 -0.28702503 0.050751396
0.12412933 -0.16840574 -0.08866248 0.3337113 -0.017518263 -0.36411455 -0.086441554 -0.4962954
0.2639035 0.38342512 0.54162246 0.077182695 0.004226831 0.09354418 -0.25827855 -0.20799178
0.37556258 -0.20625421 0.03265244 0.20471592 0.2483279 0.059299506 -0.8509817 0.3066274
0.17020383 -0.1083824 0.34725767 -1.1786515 -0.3982335 0.01623118 -0.25451827 -0.49211317
0.015024528 0.36290926 0.22060716 0.9605256 -0.08592384 0.68319625 0.15845129 -0.32006076
-0.31241304 -0.0039945315 -0.2372867 -0.36126226 -0.31298417 0.38849694 0.47229934 -0.04138494
0.5258981 0.14337087 0.77809095 0.41500476 -0.26536795 0.5629707 -0.54481196 0.5243827
0.19351886 -0.23854014 -0.26912424 0.5626687 0.29392335 0.6398051 -0.21944077 -0.018475352
0.5027396 -0.07704969 0.09061723 0.23131977 -0.11276027 0.52206886 -0.24719495 0.27986398
0.17698509 -0.07727855 -0.6884681 -0.48668554 -0.0071538677 -0.100671746 -0.111994326 0.75507325
0.10564264 0.19874233 0.7169406 0.20472857 0.5934398 0.22425526 -0.43504584 0.6957857
-1.641565 0.013346814 0.091968015 -0.087017335 0.52308553 0.45454547 0.6124316 0.8749139
-0.466402 0.5633349 -0.071927 -0.051114734 -0.5349756 0.39748278 0.7655148 0.37580663
-0.3328117 0.1533307 -0.6786355 1.0260575 0.022193335 0.47156015 -0.22136605 0.32433835
-0.0511894 -1.1252747 0.19398119 1.0392007 0.9501954 0.1696791 0.15363671 -1.258501
0.65242994 -0.1068342 -0.12335492 -0.11833967 0.7349123 0.09971046 0.07719395 -1.4193503
0.3466843 -0.09651278 0.07747096 -0.22746617 0.012569253 0.35798848 0.07144415 -0.27790082
-0.89383334 -0.21518667 0.14640631 -0.0895369 1.3117619 -0.20235613 0.030210914 -0.9736173
-0.6113561 0.18300265 -1.3089145 -1.401995 -0.8007863 -0.41111457 0.8776065 -1.3899498
0.2197086 -0.21478099 -0.105997086 0.5814447 0.47043854 -0.03674365 -1.1276878 0.4262691
-0.35895896 0.072207816 -0.29839543 -0.62928504 -0.25847822 -0.99164385 -0.4883825 -0.116732836
-0.36118236 0.3342552 0.6305938 0.75088173 0.20074855 -0.009598801 -0.6627504 0.7058019
0.400185 -0.45046577 -0.928463 0.45219857 -0.10063471 -0.33269757 -1.0414383 -0.37948456
0.72751874 0.27761602 0.74249 -0.09893322 0.76038826 -0.5033601 -0.0004050821 0.25323913
0.038846582 -0.09904789 -0.17327723 -1.0393833 -0.01994357 -0.3507056 0.057917964 0.71256095
0.47408852 0.18522066 0.38394955 -1.0365918 0.25772548 -0.36396864 0.20684388 -0.5957314
-0.3805385 0.3775041 0.32496342 0.7562799 0.3527705 -0.47258797 0.66826755 -0.22322899
0.75965714 -0.26377562 -1.1385694 0.82543063 0.49887857 0.0036850306 -0.52450514 1.007282
0.41893747 -1.0084186 -0.7952677 -1.166644 0.076194115 0.9667453 -1.2482765 -0.31493255
0.5969265 -1.3574749 1.1669773 -1.2288191 0.2881716 -1.358749 0.5463485 0.28384754

bias f4 [8]
00000000: 33bf 783c 2f82 c8bd 8c3e 693c fd1b 573e
00000010: 0334 c4bb 4752 203d 9258 b2bd 8e87 80bd
0.015182304 -0.097904555 0.014236104 0.2100677 -0.0059876456 0.039140966 -0.087083 -0.06275855
