model-doom.pth (torch, 76459 bytes, 27 tensors)

weight f4 [8, 1, 3, 3]
0.08847093 0.71802413 0.57542485 -2.9360216 0.17298049 -0.44697863 -1.1046355 1.2168294
0.41558516 0.14155816 0.46664274 -0.51377493 1.0060128 1.3008394 0.39529273 -1.277589
0.45306057 -1.8249271 -0.77665085 1.0163856 1.7162199 0.39326113 0.6356708 0.05165859
0.42060688 0.4176219 -0.6206452 1.4799995 -1.4102386 -0.4574477 1.0614384 -0.8929683
-0.26828673 -0.14879215 -1.3030226 0.48749736 -0.6052428 0.5974569 -0.029900936 -1.5602618
1.7745366 -0.0021617166 -0.6359399 2.1858308 -1.444117 -0.5063099 -0.5918072 0.6694705
1.012693 -0.3213655 -1.1953791 0.9560581 0.041355696 1.5781505 -1.123574 -1.2430032
0.65114164 0.18327932 -1.2451993 0.6246561 -0.36353204 0.14882857 1.1698273 -1.5997025
-0.8904868 0.21984981 0.10527826 -0.94771516 0.051655445 0.691985 0.010373591 0.3758895
00000000: 3f30 b53d 6ed0 373f 0b4f 133f c7e7 3bc0
00000010: cc21 313e 62da e4be b264 8dbf 11c1 9b3f
00000020: 94c7 d43e 9ff4 103e cceb ee3e c186 03bf
00000030: 07c5 803f e881 a63f cf63 ca3e 0988 a3bf
00000040: 8ef7 e73e 3697 e9bf 97d2 46bf ec18 823f
00000050: 18ad db3f 8659 c93e 52bb 223f f597 533d
00000060: c959 d73e 8ad2 d53e 9be2 1ebf a070 bd3f
00000070: b382 b4bf 9636 eabe 37dd 873f 9299 64bf
00000080: e15c 89be f85c 18be 72c9 a6bf 4199 f93e
00000090: 31f1 1abf eff2 183f cff2 f4bc a9b6 c7bf
000000a0: 0424 e33f 96ab 0dbb f5cc 22bf a7e4 0b40
000000b0: d3d8 b8bf 879d 01bf ad80 17bf 6b62 2b3f
000000c0: ed9f 813f 058a a4be 2f02 99bf 39c0 743f
000000d0: 9764 293d d600 ca3f 46d1 8fbf bb1a 9fbf
000000e0: 38b1 263f 93ad 3b3e b162 9fbf 76e9 1f3f
000000f0: df20 babe 8466 183e e7bc 953f 0dc3 ccbf
00000100: f1f6 63bf 4f20 613e 219c d73d 769d 72bf
00000110: a994 533d ee25 313f fff5 293c 9774 c03e

weight f4 [8]
1.7066076 1.5107474 1.5553136 1.6061534 1.2854651 1.7957113 1.5829962 1.3662231
00000000: 1e72 da3f 2c60 c13f 8414 c73f 6f96 cd3f
00000010: 1f8a a43f ded9 e53f 9f9f ca3f 66e0 ae3f

bias f4 [8]
0.34035364 -0.9656547 -0.7529585 -0.60012186 -0.93866366 -0.8125951 0.14746225 0.024971956
00000000: d542 ae3e 2535 77bf e3c1 40bf 96a1 19bf
00000010: 434c 70bf 3c06 50bf 5800 173e fd91 cc3c

running_mean f4 [8]
-0.40238997 0.028448805 1.018073 -0.4637511 0.09025489 0.52959675 -0.35792732 -0.6062221
00000000: 0f06 cebe 780d e93c 3750 823f c970 edbe
00000010: 8ed7 b83d a793 073f 4042 b7be 5f31 1bbf

running_var f4 [8]
0.06822026 0.04054795 0.12773368 0.042639323 0.023121698 0.048200015 0.05529139 0.08042994
00000000: 10b7 8b3d 9b15 263d 9ecc 023e 92a6 2e3d
00000010: b769 bd3c 616d 453d 3979 623d 74b8 a43d

weight f4 [8, 8, 3, 3]
-0.48271978 0.14547834 -0.8704551 -0.38254052 -0.9420743 0.1989628 0.15839551 0.9004651
0.32290128 0.4270003 -0.18521307 -0.11817033 0.0692809 -0.15274625 -0.9252587 0.6127357
-0.18847656 -0.39621505 -0.36805326 0.007842189 0.7239579 -0.07317513 0.11740144 -0.3182361
-0.26036698 -0.20253736 -0.032748483 -0.14563224 -0.20203058 0.0022727612 -0.055851474 -0.26260772
0.18531424 0.29765305 0.17213193 0.31672817 -0.40595767 0.3359275 -0.56408507 -0.47510543
-0.4885901 0.01997177 -0.33267355 -0.04837989 -0.0037659481 0.07490599 -0.8417203 0.39817375
0.3547316 -0.26360914 -0.47712934 -0.41427547 0.81482166 0.60132974 -0.29418373 0.5377468
-0.71712065 0.9803382 0.012737057 0.4967975 0.7827155 -0.4250787 0.14564939 -0.2914814
0.29856595 -0.6881616 0.96247053 -0.17431913 0.51645863 0.8104638 -0.579406 -0.09720703
-0.2619408 0.655108 0.4613073 0.06685077 0.63983476 0.0798565 0.37872347 -0.7509856
0.088119335 0.22196698 -0.8936489 -0.4149332 -0.6382618 -0.022832613 0.29491886 0.23131089
0.31170964 0.4269559 -1.1060553 0.3920461 -1.0594933 -0.117096104 0.3672921 0.16331346
-0.0020751173 0.37573475 0.45234075 -0.2253378 0.31881127 -0.20819247 -0.24470912 -0.35009837
0.30524254 0.25970775 -0.37986696 0.014534359 0.28925946 0.30602202 -0.74246925 -0.12298637
-0.2874221 0.03531197 -1.2306262 1.0518594 0.7020837 -0.4812493 0.0440149 0.18221234
0.108809166 0.23084116 0.3393102 -0.8460154 -0.29698804 0.609004 -0.29673406 -0.23617803
0.6956875 0.7185347 -0.080306515 -0.34915382 0.40655732 -0.7289746 -0.2141055 -0.66951317
-0.14079519 0.48822713 0.59136796 -0.1450017 -0.3903713 0.48543736 -0.5115912 0.05216617
-0.1859374 -0.02740574 0.3764471 -0.9439658 0.56823957 0.36028212 0.68763214 0.2946976
-0.40480673 -0.13329512 -0.23311393 -0.23141783 0.11234934 -0.23566297 -0.39579716 0.2896804
-0.3476192 -0.049876165 -0.11283417 -0.43069458 -0.75079244 0.7713826 -0.36655116 0.67235416
0.62331206 -0.46318012 0.23410073 0.26865178 0.6596599 -0.55476296 0.4944726 -0.10555358
0.012913757 0.6185001 -0.801876 0.20339409 0.14116755 -0.5877615 -0.55563754 0.0024608609
-0.09344672 0.16444604 -0.28144142 -0.29026228 -0.08637679 0.7497978 0.018037789 0.6599425
0.7439871 -0.48695564 0.033508915 -0.29541615 0.37391788 -0.87620133 -0.22565275 0.6942075
0.5654955 -0.37843475 -0.142568 -0.08444372 -0.14684945 -0.09110454 -0.06862593 -0.2477994
0.14802338 0.43272492 -0.060483914 -0.096850984 0.0358819 -0.26700068 0.08528479 0.02187685
-1.1579369 -0.8491003 0.08400851 -0.5716159 -0.13808414 0.14244169 0.24172328 0.28755292
0.5374958 0.0362784 -0.23055278 -0.055458833 0.001941866 -0.006483622 0.16691022 -0.061049502
-0.24101965 0.09095876 0.04644483 0.5586652 0.19721593 0.011140036 0.15414312 0.36479914
-0.5145365 -1.0070618 -0.16892867 -0.7636466 -0.21297216 -0.82684505 -0.42946005 -0.1468824
-0.851663 0.08969534 0.6466557 0.1113167 -0.8731021 -0.23122288 -0.020247543 0.088771716
00000000: 0c27 f7be 46f8 143e 25d6 5ebf 5adc c3be
00000010: c82b 71bf e7bc 4b3e 6f32 223e e184 663f
00000020: 5153 a53e c99f da3e 7fa8 3dbe 4903 f2bd
00000030: 25e3 8d3d 8369 1cbe c1dd 6cbf 3fdc 1c3f
00000040: 0000 41be b3dc cabe 7a71 bcbe 867c 003c
00000050: 4e55 393f d8dc 95bd 2b70 f03d d8ef a2be
00000060: d24e 85be f465 4fbe 4623 06bd 9e20 15be
00000070: 1be1 4ebe 9bf2 143b 84c4 64bd 8574 86be
00000080: 04c3 3d3e fb65 983e 5a43 303e 322a a23e
00000090: afd9 cfbe b0fe ab3e e167 10bf 0541 f3be
000000a0: 7b28 fabe d69b a33c 3054 aabe fe29 46bd
000000b0: 20ce 76bb 5068 993d fb7a 57bf 6edd cb3e
000000c0: 619f b53e c7f7 86be 4c4a f4be ea1b d4be
000000d0: 2798 503f bff0 193f 409f 96be c6a9 093f
000000e0: 3895 37bf 72f7 7a3f 17af 503c 3e5c fe3e
000000f0: 0b60 483f eaa3 d9be 1d25 153e 0d3d 95be
00000100: a3dd 983e 5c2b 30bf 7864 763f b780 32be
00000110: a236 043f 8e7a 4f3f f453 14bf 7b14 c7bd
00000120: 1b1d 86be 28b5 273f 7830 ec3e 0ee9 883d
00000130: 36cc 233f ce8b a33d 0be8 c13e 9840 40bf
00000140: e977 b43d 504b 633e 2dc6 64bf 2072 d4be
00000150: 2065 23bf 760b bbbc 9bff 963e c3dc 6c3e
00000160: 6898 9f3e f799 da3e 3893 8dbf 44ba c83e
00000170: 7a9d 87bf 15d0 efbd b60d bc3e a53b 273e
00000180: b1fe 07bb 4e60 c03e 3599 e73e f4be 66be
00000190: 3b3b a33e 6830 55be 0795 7abe 1840 b3be
000001a0: c048 9c3e 6af8 843e ec7d c2be 8521 6e3c
000001b0: d119 943e ebae 9c3e 7712 3ebf 47e0 fbbd
000001c0: fd28 93be 49a3 103d 2985 9dbf 54a3 863f
000001d0: c2bb 333f 4f66 f6be f848 343d df95 3a3e
000001e0: 57d7 de3d a061 6c3e 11ba ad3e 7794 58bf
000001f0: d10e 98be b0e7 1b3f 87ed 97be a7d8 71be
00000200: 9318 323f e4f1 373f be77 a4bd 4ac4 b2be
00000210: 4828 d03e 149e 3abf 793e 5bbe 3765 2bbf
00000220: 9d2c 10be e8f8 f93e e463 173f 537b 14be
00000230: bfde c7be 3f8b f83e a4f7 02bf 32ac 553d
00000240: 6066 3ebe 0182 e0bc adbd c03e bea7 71bf
00000250: 2678 113f e676 b83e a908 303f 9be2 963e
00000260: d442 cfbe 847e 08be 6bb5 6ebe ccf8 6cbe
00000270: 6917 e63d a251 71be eda5 cabe fd50 943e
00000280: 25fb b1be f34a 4cbd 9a15 e7bd 0084 dcbe
00000290: ef33 40bf 5479 453f 98ac bbbe 671f 2c3f
000002a0: 6191 1f3f f225 edbe 1ab8 6f3e ba8c 893e
000002b0: 79df 283f f204 0ebf 832b fd3e 7a2c d8bd
000002c0: 3994 533c 0656 1e3f bf47 4dbf 8a46 503e
000002d0: 3a8e 103e 8a77 16bf 433e 0ebf 6546 213b
000002e0: fe60 bfbd 8b64 283e 1719 90be 429d 94be
000002f0: 51e6 b0bd c0f2 3f3f fcc3 933c fef1 283f
00000300: f075 3e3f 4052 f9be a540 093d c940 97be
00000310: 2a72 bf3e bb4e 60bf 8411 67be 95b7 313f
00000320: 50c4 103f 33c2 c1be 59fd 11be d4f0 acbd
00000330: b45f 16be 0495 babd c08b 8cbd 20bf 7dbe
00000340: 7193 173e 1f8e dd3e fbbd 77bd cf59 c6bd
00000350: e6f8 123d 50b4 88be cba9 ae3d 1437 b33c
00000360: 4737 94bf a35e 59bf a70c ac3d 6b55 12bf
00000370: ee65 0dbe 3cdc 113e 4f86 773e 233a 933e
00000380: 5399 093f a998 143d 0716 6cbe cd28 63bd
00000390: 3686 fe3a 9074 d4bb 83ea 2a3e 0b0f 7abd
000003a0: dbcd 76be 9648 ba3d ef3c 3e3d af04 0f3f
000003b0: f9f2 493e b384 363c b2d7 1d3e f4c6 ba3e
000003c0: aab8 03bf 67e7 80bf a3fb 2cbe 587e 43bf
000003d0: 6015 5abe 1eac 53bf 30e2 dbbe 5768 16be
000003e0: 9606 5abf 31b2 b73d 3a8b 253f 03fa e33d
000003f0: 9f83 5fbf b1c5 6cbe 2dde a5bc f2cd b53d

weight f4 [8]
1.4614968 1.4319671 1.1001048 1.8580337 1.6052564 1.3866477 1.3107079 2.1012988
00000000: 5412 bb3f b34a b73f 3cd0 8c3f 0cd4 ed3f
00000010: 0b79 cd3f ac7d b13f 47c5 a73f ae7b 0640

bias f4 [8]
0.35602906 0.27024034 -0.061360702 -0.17741312 -0.5165519 0.10579534 0.47241962 -1.0752743
00000000: 7149 b63e f15c 8a3e 5c55 7bbd c9ab 35be
00000010: bf3c 04bf 3aab d83d fce0 f13e 97a2 89bf

running_mean f4 [8]
-0.33691907 0.4333214 1.2829353 -3.0321395 -2.236577 0.15256093 -1.2560997 -2.3699076
00000000: a880 acbe 4ddc dd3e 3937 a43f 930e 42c0
00000010: 1424 0fc0 ef38 1c3e e0c7 a0bf 91ac 17c0

running_var f4 [8]
7.9423294 10.365449 10.60167 24.104074 13.913321 8.552207 9.8641815 9.79821
00000000: 9027 fe40 e1d8 2541 71a0 2941 25d5 c041
00000010: f69c 5e41 d7d5 0841 b0d3 1d41 78c5 1c41

weight f4 [8, 8, 3, 3]
-0.8867477 -0.6948591 -0.39475462 0.024803985 0.34675938 -0.22998141 -0.05339711 -0.66472346
0.3085291 0.29496923 -0.7409748 0.6841654 0.4163172 -0.7417941 0.101870015 0.6887036
-0.58291394 0.10983533 -0.3543436 0.036437847 -0.16369213 -0.56979924 0.21513551 -0.00032575478
0.43168697 -0.19621514 -0.098574154 0.14161724 0.57671386 0.11711481 -1.026046 0.5071501
-0.27511063 -0.2823974 0.02443481 0.6635622 0.20429452 0.3628712 0.4104488 -0.082834
0.98976296 -0.53387904 -0.51549906 -0.47420582 0.191231 0.2578169 0.566566 -0.71902794
-0.07954048 -0.45469144 0.012481424 0.14636293 -0.1808181 0.29783097 -0.23419093 -0.104518734
-0.22416669 0.34936336 -0.120358035 0.19241436 -1.3033345 0.36901566 -0.20657966 -0.054504316
-0.4032184 0.26756465 0.32620868 0.4504956 -0.41703728 0.48149094 0.7982014 0.041445643
0.044984717 -0.09695606 0.27848718 -0.7311293 0.12391109 -0.35207906 0.14306137 -0.70769054
-0.7866698 -0.95920485 -0.29229864 -0.23947284 -0.7786469 0.03967358 0.4657251 0.6519229
-0.1773677 -0.49346852 0.6672198 0.4631587 -0.1976253 0.050910305 -0.48417112 0.006554267
-0.41961452 -0.29311472 -0.2844541 0.14259355 0.07463219 -0.39211193 0.5945944 0.27273497
-0.12385015 0.32236108 0.62152725 0.055432122 0.37529114 0.21255979 0.03258266 -0.909507
0.1891402 -0.35533404 -0.64889085 0.058295798 -0.11494143 0.1663851 -0.7041537 -0.6056838
-0.32172492 -0.25576413 -0.46928254 0.039173048 0.07578092 -0.73106176 -0.2654094 0.669707
0.2523398 0.24304739 -0.28053948 -0.7647616 -0.24560373 -0.5839487 0.47395623 -0.31629682
0.42456827 -0.5579152 -0.3638361 -0.006120534 0.27802944 -0.10740795 -0.393743 -0.024634572
0.5112145 -0.18969473 0.33796218 -0.37066022 0.06975199 -0.29684678 0.033602897 0.21603875
-1.2918506 -0.15673798 -0.0015572632 0.25297755 -0.32694128 -0.036530044 -0.23335297 0.20855753
0.081127994 0.14159477 -0.04039108 -0.13379125 0.6564892 0.2114337 0.16723138 0.3990822
0.1864017 -0.12704213 0.06396699 0.323472 -0.21934325 0.042421915 0.14350693 0.52250016
-0.021936836 -0.87440115 0.34297192 0.28766808 -0.060987353 -0.24496746 0.84898716 0.19957392
0.964825 0.23481923 0.013193683 -0.16630763 0.28514153 0.5241686 0.099797025 0.19603218
-0.54696625 -0.40849882 0.3470587 0.5383941 0.84542155 -0.7566312 0.37524047 -0.22972369
0.93723834 -0.48731998 -0.13499258 1.2464764 -0.33499745 -0.4946101 0.22389127 1.1880884
-1.2190608 -0.25881314 0.092040494 -0.08372419 -0.2122893 -0.35255608 0.2417828 0.5794717
-0.6369245 0.28438905 0.21754044 -0.68494046 0.117929995 0.10393274 0.5974591 -0.07117361
0.43148044 0.7530539 0.07768658 -0.5156319 -0.21188757 0.056918837 -0.48690072 0.1451409
0.12509212 -0.46947104 -0.33233148 0.2997873 -0.20793176 0.23782632 -0.5694588 -0.073518775
-0.41241366 -0.15958329 0.65978336 -1.1955839 -0.6283617 -1.0236299 0.52784973 -0.08213126
0.48824227 0.47167853 -0.1510435 -1.8023463 -0.4764095 -0.2454003 -0.8641341 -0.40331745
00000000: e601 63bf 49e2 31bf 471d cabe ba31 cb3c
00000010: 728a b13e 3f80 6bbe eeb6 5abd 512b 2abf
00000020: 87f7 9d3e 3506 973e 86b0 3dbf 7725 2f3f
00000030: 8727 d53e 38e6 3dbf 3aa1 d03d e14e 303f
00000040: d939 15bf 58f1 e03d 866c b5be da3f 153d
00000050: e99e 27be 5dde 11bf 7c4c 5c3e 11ca aab9
00000060: 1306 dd3e 9fec 48be 3fe1 c9bd 1c04 113e
00000070: 85a3 133f e4d9 ef3d 7a55 83bf 97d4 013f
00000080: 4ddb 8cbe 6496 90be 832b c83c 36df 293f
00000090: 9532 513e 41ca b93e 5826 d23e dfa4 a9bd
000000a0: 1b61 7d3f 4cac 08bf bff7 03bf 1bcb f2be
000000b0: 0fd2 433e 9400 843e 780a 113f 3712 38bf
000000c0: 1fe6 a2bd 51cd e8be e37e 4c3c 2ae0 153e
000000d0: 6128 39be 4d7d 983e bfcf 6fbe eb0d d6bd
000000e0: f48b 65be c1df b23e 467e f6bd 4508 453e
000000f0: aad3 a6bf 9fef bc3e 9e89 53be eb3f 5fbd
00000100: a472 cebe 3cfe 883e d304 a73e 5ca7 e63e
00000110: e985 d5be fb85 f63e ed56 4c3f e8c2 293d
00000120: e541 383d e690 c6bd df95 8e3e 4a2b 3bbf
00000130: 19c5 fd3d b543 b4be ae7e 123e 352b 35bf
00000140: 3163 49bf 738e 75bf 2ba8 95be 5e38 75be
00000150: 6755 47bf c480 223d 8573 ee3e 6be4 263f
00000160: e19f 35be e8a7 fcbe ebce 2a3f 2323 ed3e
00000170: 495e 4abe 5387 503d 47e5 f7be 2dc5 d63b
00000180: b7d7 d6be 2213 96be f8a3 91be 0b04 123e
00000190: c3d8 983d e5c2 c8be 5737 183f eba3 8b3e
000001a0: 26a5 fdbd 830c a53e 691c 1f3f cb0c 633d
000001b0: 2926 c03e 46a9 593e 6575 053d 73d5 68bf
000001c0: f8ad 413e 58ee b5be b61d 26bf 93c7 6e3d
000001d0: 6a66 ebbd db60 2a3e 6b43 34bf 180e 1bbf
000001e0: 21b9 a4be 84f3 82be cd45 f0be eb73 203d
000001f0: 0733 9b3d dd26 3bbf bee3 87be eb71 2b3f
00000200: af32 813e 6ae1 783e dfa2 8fbe 6bc7 43bf
00000210: 8b7f 7bbe a97d 15bf 64aa f23e a8f1 a1be
00000220: 0361 d93e 88d3 0ebf ba48 babe c38e c8bb
00000230: e059 8e3e b3f8 dbbd af98 c9be 71ce c9bc
00000240: f4de 023f 563f 42be 6109 ad3e 2dc7 bdbe
00000250: 22da 8e3d 4dfc 97be 31a3 093d 4339 5d3e
00000260: 5c5b a5bf ec7f 20be 151d ccba 4686 813e
00000270: d964 a7be 87a0 15bd 15f4 6ebe 1b90 553e
00000280: 6f26 a63d 38fe 103e 1e71 25bd 9300 09be
00000290: ad0f 283f 1382 583e b43e 2b3e 8154 cc3e
000002a0: 16e0 3e3e 5517 02be 2001 833d 1f9e a53e
000002b0: 849b 60be 9ac2 2d3d 7bf3 123e 92c2 053f
000002c0: e1b4 b3bc c1d8 5fbf 049a af3e 3b49 933e
000002d0: e0cd 79bd c0d8 7abe 3957 593f 1b5d 4c3e
000002e0: c5fe 763f 7474 703e 512a 583c 8c4c 2abe
000002f0: 12fe 913e ea2f 063f 6262 cc3d a9bc 483e
00000300: fb05 0cbf c226 d1be aeb1 b13e 32d4 093f
00000310: 8c6d 583f 95b2 41bf 851f c03e b03c 6bbe
00000320: daee 6f3f 0182 f9be 7f3b 0abe 8a8c 9f3f
00000330: c984 abbe 893d fdbe c143 653e 4813 983f
00000340: 2f0a 9cbf 2883 84be ba7f bc3d 9777 abbd
00000350: 5e62 59be 3b82 b4be e995 773e 4258 143f
00000360: 7c0d 23bf 719b 913e ecc2 5e3e 4258 2fbf
00000370: 4885 f13d b0da d43d 14f3 183f 78c3 91bd
00000380: 01eb dc3e 24c8 403f 241a 9f3d 7400 04bf
00000390: 0ef9 58be ba23 693d 0d4b f9be d19f 143e
000003a0: 2618 003e 825e f0be 5a27 aabe b97d 993e
000003b0: 10ec 54be be88 733e 0dc8 11bf 0391 96bd
000003c0: e227 d3be cd69 23be 90e7 283f e508 99bf
000003d0: 50dc 20bf 4e06 83bf 2921 073f 6f34 a8bd
000003e0: e4fa f93e d97f f13e 26ab 1abe 49b3 e6bf
000003f0: f2eb f3be 374a 7bbe e437 5dbf a07f cebe

weight f4 [8]
1.6322169 1.372283 1.3125145 1.3554497 1.685345 1.3837045 1.3560474 1.4822484
00000000: 7cec d03f f8a6 af3f 7a00 a83f 607f ad3f
00000010: 63b9 d73f 3b1d b13f f692 ad3f 51ba bd3f

bias f4 [8]
-1.3669297 -0.4737652 -1.0201055 -0.6665123 -1.1087812 -0.6632119 -0.9557113 -0.7651272
00000000: 8df7 aebf 5a91 f2be d192 82bf 8da0 2abf
00000010: 8bec 8dbf 41c8 29bf 7fa9 74bf 60df 43bf

running_mean f4 [8]
-1.6441888 -4.3976436 2.0685291 -3.521576 -2.0330565 -3.879299 -0.9242108 -5.3894434
00000000: c774 d2bf 7fb9 8cc0 c862 0440 8061 61c0
00000010: 991d 02c0 6f46 78c0 1499 6cbf 5276 acc0

running_var f4 [8]
16.106823 10.008755 11.606422 15.078896 9.877461 10.222837 10.368834 13.094169
00000000: c6da 8041 dc23 2041 e8b3 3941 2843 7141
00000010: 150a 1e41 be90 2341 bee6 2541 b781 5141

weight f4 [16, 8, 3, 3]
-0.16381326 0.25223777 -0.50723326 0.1921411 -0.099089906 0.013822352 0.10376566 -0.632372
-0.06754707 -0.2339646 0.12838982 -0.58610463 -0.085720874 -0.6117773 0.07946572 -0.11002408
-0.07523893 -0.14606597 0.06716662 0.16359538 -0.067681745 -0.19039984 -0.61075 -0.44580486
0.49833933 0.7398008 -0.59781975 0.56436294 -0.11909559 -0.32454512 -0.5013607 0.098940365
-0.1757766 0.15027615 -0.0921628 -0.6368287 0.51801574 0.3013587 0.72061026 -0.3837782
-0.16207847 0.116000906 -0.34863904 0.024584884 0.17648728 0.11684647 0.51211995 0.4958403
-0.11967542 0.1887689 -0.0033523282 -0.21934818 0.18025288 -0.030700823 -0.44269437 -0.07661278
0.028326038 -0.07663009 -0.055384226 -0.035815764 0.1438385 0.109450355 0.14230889 -0.8127248
0.29543513 -0.37383053 -0.6352523 -0.3221802 -0.011563271 -0.3885204 0.23181757 0.2868131
0.26574636 -0.7037284 -0.055006526 -0.29732114 -0.09610251 -0.50441825 -0.23429286 0.07304657
-0.24118602 0.04882678 0.21293932 0.075668134 -0.14137205 -0.0048704636 -0.12337997 -0.38094676
0.40500414 0.0717994 -0.034624025 -0.22701433 -0.79923725 0.21726118 0.19620302 0.33523315
0.34825006 0.4952125 -0.75247115 -0.45279706 -0.20017706 -0.2800162 -0.32180983 -0.89834553
0.783046 0.12726963 0.022151917 0.35505265 -0.0552201 -0.6010812 -0.47627017 0.5275142
-0.032849543 -0.6340619 0.28186736 0.31717592 -0.37338567 -0.3796778 0.078886524 -0.26005045
0.30029422 -0.18818423 0.06826235 -0.13586728 -0.3210157 -0.1605852 -0.5591885 -0.054391395
-0.3600639 0.5470425 0.40651637 0.30751836 -0.4285016 -0.67355615 -0.023899274 -0.040377423
0.020371899 0.14213718 -0.55418193 0.06664993 0.26960173 0.08490701 0.24686937 -0.11336866
0.119404934 0.3999441 -0.33185887 0.13519903 0.07962814 0.3610398 -0.47812045 0.09440427
0.4033342 -0.048748273 0.09418518 -0.26453844 -0.41196215 -0.84204674 -0.32609302 -0.34720936
0.47906572 -0.3957899 0.6141467 -0.074176356 -0.37867233 0.21079333 -0.1008267 0.26166058
0.33916944 -0.19600458 -0.20245032 0.21630384 -0.61554664 -0.48360738 0.13217008 -0.0964235
-0.40904492 0.46919286 -0.6354441 -0.51069134 0.073730215 -0.34680986 0.35569954 -0.18371455
-0.24323046 -0.14315216 0.16327666 -0.22446874 -0.044946566 0.35816732 0.43104562 -0.057822607
-0.36700323 0.055854797 0.12687734 0.08108672 0.01164086 -0.5769605 0.06972093 -0.46968946
0.33879748 -0.371658 -0.27328646 -0.15274298 -0.3317355 0.0027266063 0.44888884 0.22755048
0.1587967 -0.17685091 -0.5745249 -0.48796946 0.60810167 -0.15210171 -0.10521316 -1.2053035
-0.33501616 0.022365239 0.29557955 -0.3587534 -0.4682073 -0.20488468 -0.10190036 -0.1247841
-0.22821388 -0.041805375 -0.030762546 0.20592377 0.051494025 -0.12643786 0.02511138 0.059088502
0.17627834 0.06827105 -0.5585446 -0.1881379 -0.75749516 0.5017448 0.08366151 -0.23567206
0.21006742 0.0071122483 -0.5426706 -0.4138363 -0.2334744 0.3054248 0.43780354 0.44073004
-0.19988073 0.049870905 -0.59608746 0.30749333 -0.81445545 -0.21019472 -0.07551545 -0.31839883
00000000: aabe 27be 4f25 813e 0ada 01bf a3c0 443e
00000010: a6ef cabd 2577 623c 1783 d43d 22e3 21bf
00000020: 1e56 8abd 6b94 6fbe 9f78 033e f40a 16bf
00000030: 6d8e afbd 709d 1cbf ecbe a23d 4e54 e1bd
00000040: de16 9abd 5192 15be a78e 893d 8c85 273e
00000050: ba9c 8abd 2df8 42be 1d5a 1cbf 8940 e4be
00000060: 5526 ff3e 9663 3d3f b70a 19bf 177a 103f
00000070: 64e8 f3bd c72a a6be 2d59 00bf 3fa1 ca3d
00000080: c8fe 33be fee1 193e dabf bcbd 3507 23bf
00000090: ae9c 043f b04b 9a3e ea79 383f 947e c4be
000000a0: e6f7 25be e291 ed3d d180 b2be 3d66 c93c
000000b0: 15b9 343e 344d ef3d 4b1a 033f c8de fd3e
000000c0: 6318 f5bd a24c 413e bcb2 5bbb cf9c 60be
000000d0: 3694 383e 4b80 fbbc d6a8 e2be 29e7 9cbd
000000e0: 020c e83c 3df0 9cbd 92da 62bd 8db3 12bd
000000f0: 664a 133e 8227 e03d 6cb9 113e bc0e 50bf
00000100: 4643 973e b766 bfbe e59f 22bf cef4 a4be
00000110: e073 3dbc 25ec c6be 9661 6d3e 2bd9 923e
00000120: e80f 883e 8b27 34bf 864e 61bd 7a3a 98be
00000130: 65d1 c4bd 8e21 01bf 78ea 6fbe 7199 953d
00000140: 78f9 76be 97fe 473d c40c 5a3e e5f7 9a3d
00000150: d6c3 10be 6998 9fbb a3ae fcbd 740b c3be
00000160: b45c cf3e 900b 933d ecd1 0dbd 7276 68be
00000170: d09a 4cbf b779 5e3e 72e9 483e aea3 ab3e
00000180: d54d b23e 7e8c fd3e f3a1 40bf 04d5 e7be
00000190: 37fb 4cbe 495e 8fbe 42c4 a4be f9f9 65bf
000001a0: b475 483f f852 023e f077 b53c 76c9 b53e
000001b0: 792e 62bd 75e0 19bf afd9 f3be 2c0b 073f
000001c0: 3e8d 06bd e151 22bf eb50 903e e264 a23e
000001d0: 682c bfbe 2165 c2be 428f a13d 5525 85be
000001e0: 2ac0 993e 5eb3 40be 22cd 8b3d cb20 0bbe
000001f0: 2b5c a4be 7270 24be fa26 0fbf 83c9 5ebd
00000200: 4c5a b8be fa0a 0c3f ea22 d03e 0c73 9d3e
00000210: 9064 dbbe 2d6e 2cbf 69c8 c3bc cc62 25bd
00000220: f8e2 a63c 698c 113e dede 0dbf c27f 883d
00000230: 3d09 8a3e bae3 ad3d 53cb 7c3e d42d e8bd
00000240: 938a f43d 79c5 cc3e 68e9 a9be 9d71 0a3e
00000250: 1414 a33d 35da b83e 34cc f4be 0757 c13d
00000260: d281 ce3e 45ac 47bd 29e4 c03d 9571 87be
00000270: b4ec d2be 6090 57bf aaf5 a6be 6dc5 b1be
00000280: 1a48 f53e f9a4 cabe b838 1d3f c6e9 97bd
00000290: 57e1 c1be 35da 573e 3b7e cebd 60f8 853e
000002a0: 9ea7 ad3e 6db5 48be 234f 4fbe c17e 5d3e
000002b0: 7794 1dbf 639b f7be 9857 073e af79 c5bd
000002c0: 566e d1be 0c3a f03e 77ac 22bf abbc 02bf
000002d0: deff 963d 1091 b1be 401e b63e ab1f 3cbe
000002e0: 6811 79be 7b96 12be ff31 273e 22db 65be
000002f0: e419 38bd b561 b73e 03b2 dc3e 66d7 6cbd
00000300: d9e7 bbbe 00c8 643d 22ec 013e cb10 a63d
00000310: 4eb9 3e3c afb3 13bf d9c9 8e3d 237b f0be
00000320: dd76 ad3e f549 bebe 34ec 8bbe a868 1cbe
00000330: 3cd9 a9be ddb0 323b c2d4 e53e fe02 693e
00000340: 9a9b 223e 6818 35be 1014 13bf 22d7 f9be
00000350: 8dac 1b3f 8dc0 1bbe ff79 d7bd 6347 9abf
00000360: 3d87 abbe 4e37 b73c 3456 973e 87ae b7be
00000370: deb8 efbe 4acd 51be 23b1 d0bd ce8e ffbd
00000380: e6b0 69be 1d3c 2bbd bc01 fcbc aedd 523e
00000390: 66eb 523d ed78 01be 61b6 cd3c c906 723d
000003a0: 4f82 343e b1d1 8b3d c7fc 0ebf 39a7 40be
000003b0: 34eb 41bf 5972 003f ba56 ab3d 0454 71be
000003c0: ea1b 573e dd0d e93b 76ec 0abf 5ae2 d3be
000003d0: ea13 6fbe a460 9c3e c927 e03e 5ea7 e13e
000003e0: 89ad 4cbe 6f45 4c3d 3099 18bf c46f 9d3e
000003f0: 2780 50bf 493d 57be d8a7 9abd 2c05 a3be

weight f4 [16]
1.5312269 1.7805338 1.9168504 1.7942553 1.3895006 1.7798392 1.8242608 1.5044576
2.9725227 2.9369586 3.0122788 2.985013 3.2048483 2.9135466 3.088164 3.0680246
00000000: 3eff c33f 88e8 e33f 5b5b f53f 28aa e53f
00000010: 28db b13f c5d1 e33f 6181 e93f 1192 c03f
00000020: d03d 3e40 21f7 3b40 2dc9 4040 740a 3f40
00000030: 3c1c 4d40 8c77 3a40 7ba4 4540 845a 4440

bias f4 [16]
0.2817566 0.0001551974 0.6532911 0.40180358 0.14960393 -0.4540195 -0.30207464 0.53752786
0.51868325 -0.37296295 0.107047334 0.17002092 0.20092341 0.019670384 -0.09269669 0.28493333
00000000: 6742 903e 7cbc 2239 163e 273f 33b9 cd3e
00000010: c631 193e 3e75 e8be 87a9 9abe 6d9b 093f
00000020: 6dc8 043f 00f5 bebe a23b db3d f719 2e3e
00000030: debe 4d3e c923 a13c c3d7 bdbd c8e2 913e

running_mean f4 [16]
-1.6407751 -1.1482369 -2.0136855 -0.7372326 -0.96173775 -1.793999 -0.7391044 -1.0779263
-1.3187135 0.44761702 0.28993526 -1.1191131 -0.22627904 -0.65045065 -0.9103588 -0.87632006
00000000: eb04 d2bf 6df9 92bf 39e0 00c0 47bb 3cbf
00000010: 7234 76bf c2a1 e5bf f235 3dbf 7df9 89bf
00000020: 9bcb a8bf 0f2e e53e 6572 943e 193f 8fbf
00000030: b1b5 67be ef83 26bf 460d 69bf 8356 60bf

running_var f4 [16]
2.9328034 2.5762 5.1894197 3.5103798 3.5927606 1.7379354 3.1280646 2.807883
1.7612787 1.2766923 1.8451306 1.9576834 1.1986314 2.043502 3.360432 2.1758623
00000000: 0db3 3b40 76e0 2440 ba0f a640 10aa 6040
00000010: caef 6540 ab74 de3f 3632 4840 5bb4 3340
00000020: 9571 e13f a76a a33f 3d2d ec3f 5f95 fa3f
00000030: c16c 993f bdc8 0240 5111 5740 5441 0b40

weight f4 [64, 96]
0.24745205 0.054163642 0.048934884 -0.03433897 0.20569248 -0.107508704 0.011858101 0.23463434
0.13617784 0.054618888 0.14268725 -0.109015815 -0.03712966 0.068256006 -0.04855392 0.14022249
0.15331209 -0.013079962 0.0097684525 -0.25788125 -0.26497713 0.1821215 0.048866358 0.068240315
0.2757178 0.18521109 0.31437403 0.095993176 0.07378759 0.10000942 -0.12209465 -0.031714503
0.086412095 0.06666981 0.09831216 0.07070471 0.0040803705 0.18443155 -0.06432102 0.14071757
-0.0471707 0.07992067 0.05293138 0.180399 -0.002760088 -0.26110646 0.082717076 0.19533907
-0.0111693805 -0.009096584 -0.12259471 -0.025039824 -0.08488408 0.12786518 0.042610623 0.04381479
-0.03346247 0.24874778 0.03005676 0.090698846 -0.018955845 -0.11541055 -0.21894854 -0.07777373
0.15895587 0.21690655 0.15592483 0.06863526 0.124826886 0.05661026 0.073367134 0.05663721
0.09713401 -0.18855473 -0.2142818 -0.26525956 -0.01672291 0.17911366 0.22426952 0.17515655
0.0027612734 -0.002760026 -0.005272025 -0.061508108 -0.040825948 0.19074494 -0.009325391 0.027158966
0.02438842 -0.014663154 -0.094072185 0.2540548 0.11602814 -0.03975208 0.0072814813 -0.11863351
0.069173954 0.087465584 0.013952025 -0.0031808603 -0.12136341 0.0442695 0.060419146 -0.013409179
0.034090426 -0.04792443 -0.01781446 0.09090658 0.016155409 -0.10160874 0.0838513 0.063161954
-0.021935238 -0.030259848 0.12918578 0.15968618 0.07235833 0.023177834 -0.039844673 -0.0081662405
-0.057434756 -0.08027602 0.07915461 -0.22272255 -0.08954545 -0.060488593 -0.046132278 -0.12473855
0.022550503 -0.06838704 -0.08073458 -0.059344534 0.04163484 -0.10309674 -0.10933178 -0.0038566575
0.071462885 -0.045156132 0.032971658 -0.0342471 -0.08875736 -0.010456574 -0.0069100005 -0.00652947
0.08047259 -0.047483504 -0.12639886 0.043331474 0.02935825 -0.087677985 0.086370066 0.12695935
-0.0053812186 -0.12682162 0.13234514 -0.020301443 -0.055919945 -0.019624121 0.08371149 0.036949523
0.012757781 -0.092054375 -0.0720091 -0.012129632 -0.13978907 -0.017717596 0.05508164 0.10628758
0.052592274 0.115553886 0.06875163 -0.059144102 0.094836526 -0.018326024 0.06868335 0.09248236
0.007970269 0.022654485 -0.044207018 -0.092987016 -0.08711358 0.020003086 -0.057038788 0.07132865
0.17476015 0.09450391 0.047356367 -0.041091543 -0.016166274 0.042571936 0.07476911 0.034757566
0.03858376 0.015096573 0.03961459 0.08292665 -0.013293141 -0.03803495 0.031514954 0.17880212
0.18264966 0.044343293 0.1788839 0.09057545 0.019921325 0.14463638 -0.0025963744 0.0007506823
0.101731144 0.023842646 -0.04404937 -0.1569107 -0.036877695 0.16978972 0.048097357 -0.020512166
0.3463297 0.24352455 0.1310308 0.09097861 0.15518597 0.19926465 -0.04792729 -0.05556502
0.19460088 0.031930998 -0.010863032 0.16661991 0.035245802 0.11162493 0.024287924 0.08310743
-0.029831316 0.045306552 0.24669927 0.09977193 -0.058207285 -0.07627199 0.12788188 0.0388159
0.0029833699 0.030428762 -0.0051326207 -0.15372626 -0.09063094 0.005781917 -0.15179214 0.0009737224
0.008607599 0.24611253 -0.16154595 0.1554059 -0.08848383 -0.18099 -0.17362411 -0.028314553
00000000: 1264 7d3e b2da 5d3d f26f 483d 05a7 0cbd
00000010: 0da1 523e 862d dcbd 7b48 423c fc43 703e
00000020: 3472 0b3e 0eb8 5f3d 9b1c 123e af43 dfbd
00000030: 4515 18bd cec9 8b3d 7ae0 46bd 7c96 0f3e
00000040: d8fd 1c3e 564d 56bc dc0b 203c 0309 84be
00000050: 15ab 87be 0f7e 3a3e 1728 483d 94c1 8b3d
00000060: e22a 8d3e faa7 3d3e a2f5 a03e 1298 c43d
00000070: f31d 973d bdd1 cc3d c30c fabd 11e7 01bd
00000080: d3f8 b03d 2e8a 883d e357 c93d a2cd 903d
00000090: a1b4 853b a0db 3c3e bdba 83bd 4418 103e
000000a0: 1036 41bd 73ad a33d 93ce 583d 84ba 383e
000000b0: 98e2 34bb bfaf 85be 9267 a93d f706 483e
000000c0: c7ff 36bc d709 15bc ef12 fbbd 5120 cdbc
000000d0: b4d7 adbd 17ef 023e 7a88 2e3d 2377 333d
000000e0: f10f 09bd bdb7 7e3e 9839 f63c 51c0 b93d
000000f0: 4a49 9bbc 5e5c ecbd 0c34 60be d547 9fbd
00000100: 54c5 223e c01c 5e3e c2aa 1f3e a590 8c3d
00000110: 3da5 ff3d 29e0 673d 8241 963d 6bfc 673d
00000120: 32ee c63d 7e14 41be b06c 5bbe 1ad0 87be
00000130: 7cfe 88bc 9269 373e e9a6 653e 3d5c 333e
00000140: 7bf6 343b 8de1 34bb f3c0 acbb edef 7bbd
00000150: 1c39 27bd a452 433e 86c9 18bc 7b7c de3c
00000160: 39ca c73c ba3d 70bc eba8 c0bd 7913 823e
00000170: 29a0 ed3d 14d3 22bd 7e99 ee3b 20f6 f2bd
00000180: 13ab 8d3d 2821 b33d 0997 643c fb75 50bb
00000190: 618d f8bd ef53 353d 117a 773d 2cb2 5bbc
000001a0: 67a2 0b3d 684c 44bd a1ef 91bc 3b2d ba3d
000001b0: 5958 843c 3e18 d0bd 3bba ab3d 0e5b 813d
000001c0: 87b1 b3bc 80e3 f7bc 4749 043e c684 233e
000001d0: 9b30 943d 71df bd3c 2b34 23bd b2cb 05bc
000001e0: b540 6bbd c167 a4bd d01b a23d 6111 64be
000001f0: 9b63 b7bd e3c2 77bd 33f5 3cbd ed76 ffbd
00000200: d5bb b83c 810e 8cbd 2c58 a5bd 4113 73bd
00000210: 4b89 2a3d 6224 d3bd 57e9 dfbd fabf 7cbb
00000220: 225b 923d a3f5 38bd 4a0d 073d b046 0cbd
00000230: 6bc6 b5bd 0d52 2bbc 496d e2bb 2af5 d5bb
00000240: d0ce a43d 107e 42bd b46e 01be 587c 313d
00000250: b680 f03c 8490 b3bd cae2 b03d a201 023e
00000260: ef54 b0bb 87dd 01be 7c85 073e 364f a6bc
00000270: 500c 65bd c4c2 a0bc ee70 ab3d 6258 173d
00000280: 0306 513c 0187 bcbd 8279 93bd 5dbb 46bc
00000290: de24 0fbe 7e24 91bc 499d 613d 4ead d93d
000002a0: ff6a 573d 84a7 ec3d a8cd 8c3d 1641 72bd
000002b0: a739 c23d 7520 96bc dba9 8c3d 6467 bd3d
000002c0: bb95 023c e695 b93c 6b12 35bd fa6f bebd
000002d0: 9b68 b2bd 83dd a33c 81a1 69bd c114 923d
000002e0: 53f4 323e 448b c13d c0f8 413d 9b4f 28bd
000002f0: 226f 84bc e95f 2e3d 8c20 993d f35d 0e3d
00000300: 010a 1e3d 9e57 773c e942 223d 73d5 a93d
00000310: 79cb 59bc 89ca 1bbd d315 013d e717 373e
00000320: 8308 3b3e 50a1 353d 572d 373e 9f7f b93d
00000330: 0c32 a33c 8f1b 143e ef27 2abb 70c9 443a
00000340: 6b58 d03d a751 c33c 1d6d 34bd 33ad 20be
00000350: 110d 17bd 5bdd 2d3e bc01 453d 2109 a8bc
00000360: 2052 b13e 805e 793e f02c 063e fe52 ba3d
00000370: 12e9 1e3e 080c 4c3e 684f 44bd 2598 63bd
00000380: 7445 473e 14ca 023d dcfa 31bc 699e 2a3e
00000390: e75d 103d 9c9b e43d 78f7 c63c 3a34 aa3d
000003a0: ce60 f4bc 5d93 393d bc9e 7c3e 3a55 cc3d
000003b0: c36a 6ebd 7d34 9cbd 78f3 023e 6cfd 1e3d
000003c0: a484 433b bd45 f93c 8b2f a8bb 6b6a 1dbe
000003d0: b79c b9bd 3c76 bd3b 666f 1bbe 6741 7f3a
000003e0: e306 0d3c ec04 7c3e 4d6c 25be b922 1f3e
000003f0: 0337 b5bd 7155 39be 85ca 31be ecf3 e7bc

bias f4 [64]
0.23314464 -0.05141524 0.2978118 -0.06601805 0.071645096 0.1099517 0.01249926 0.11995093
0.34435433 0.24245337 -0.06377204 0.009804436 0.034873113 0.15823112 0.09661749 0.024585111
-0.1032491 0.13589846 -0.05339146 -0.07413173 0.30090544 0.017618733 0.31544307 0.32468033
0.009175163 0.25539756 -0.013895677 -0.03748373 0.33211812 0.19241019 0.023179902 0.04674938
0.05946881 -0.0024204284 -0.0056215688 0.11847734 -0.09893192 0.060631696 -0.008327776 0.076104425
0.0528741 -0.047071308 0.22366051 0.16516753 -0.06486128 -0.0026667698 0.0026748285 -0.026521936
-0.020106401 0.09388099 -0.0029692526 0.49989408 0.050899502 -0.012210615 0.08881858 -0.06100653
0.061608814 -0.034609195 0.09194811 0.04317913 0.017490607 0.1218113 -0.059950788 -0.011474992
00000000: 78bd 6e3e c998 52bd ca7a 983e 7934 87bd
00000010: aaba 923d 5b2e e13d b2c9 4c3c d5a8 f53d
00000020: 364f b03e b245 783e ea9a 82bd c9a2 203c
00000030: 1cd7 0e3d 5707 223e 64df c53d b766 c93c
00000040: 4474 d3bd f728 0b3e 01b1 5abd 60d2 97bd
00000050: 4710 9a3e 2955 903c c181 a13e 803c a63e
00000060: 6c53 163c 78c3 823e b2aa 63bc 8a88 19bd
00000070: 630b aa3e 2d07 453e c7e3 bd3c 477c 3f3d
00000080: 9195 733d 0da0 1ebb 2335 b8bb 3fa4 f23d
00000090: d29c cabd f158 783d 3971 08bc a3dc 9b3d
000000a0: 8392 583d d8cd 40bd 4307 653e ad21 293e
000000b0: fed5 84bd f9c4 2ebb 2d4c 2f3b 8844 d9bc
000000c0: 2eb6 a4bc ad44 c03d cb97 42bb 1ef2 ff3e
000000d0: ff7b 503d 080f 48bc 84e6 b53d fce1 79bd
000000e0: 8659 7c3d 5fc2 0dbd 4a4f bc3d 99dc 303d
000000f0: 7648 8f3c 3478 f93d f58e 75bd 9b01 3cbc

weight f4 [1, 64]
0.6673516 -0.26204112 0.56176984 -0.116285965 0.40807205 -0.9791142 -1.1428531 -0.9453668
0.92726463 0.55679053 -0.2097737 -0.7657346 -0.1733629 0.35530853 0.4077162 -0.15571173
-0.3121795 -0.47917226 -0.21780592 0.102488846 1.0686053 -0.009789393 0.741018 0.69740814
0.36027393 0.49474415 0.19789506 0.19860312 0.77522194 0.7498084 0.35517356 -0.29408497
0.35520256 -0.11462354 -0.4398377 0.31734988 -0.16627815 0.21761867 -0.31887475 0.10195194
0.030270265 -0.38800886 0.51183677 0.8864671 0.19100241 -0.86052173 -0.040719658 0.29873073
-0.72641844 0.75262725 -0.3686119 1.1835994 -1.1324832 -1.0330166 -0.67367584 0.5109413
0.53239596 0.20901674 -0.36745095 -0.12487534 0.040442847 -0.8471565 -0.15761183 -0.06685923
00000000: 8ed7 2a3f 412a 86be 26d0 0f3f 5627 eebd
00000010: d2ee d03e 3aa7 7abf 0349 92bf 8f03 72bf
00000020: 3761 6d3f d389 0e3f ebce 56be 2f07 44bf
00000030: 0b86 31be 00eb b53e 2ec0 d03e e572 1fbe
00000040: fed5 9fbe 1156 f5be 8408 5fbe ace5 d13d
00000050: 0fc8 883f b163 20bc 5bb3 3d3f 5789 323f
00000060: d375 b83e 1b4f fd3e 01a5 4a3e 9e5e 4b3e
00000070: f274 463f 71f3 3f3f 4fd9 b53e 4e92 96be
00000080: 1cdd b53e bfbf eabd 6832 e1be af7b a23e
00000090: d244 2abe 6ed7 5e3e 8d43 a3be 2ecc d03d
000000a0: 59f9 f73c 19a9 c6be bc07 033f 82ef 623f
000000b0: 2396 433e 274b 5cbf a8c9 26bd 3cf3 983e
000000c0: 8ff6 39bf 2eac 403f b3ba bcbe 2f80 973f
000000d0: 36f5 90bf e339 84bf 0576 2cbf 0dcd 023f
000000e0: 1a4b 083f 7c08 563e 8822 bcbe a4be ffbd
000000f0: 66a7 253d 40df 58bf ff64 21be 7eed 88bd

weight f4 [64, 96]
0.15148316 -0.11474307 -0.16228205 0.053890694 0.031418994 -0.27272323 0.050618686 -0.14050737
0.066596925 -0.33140308 0.10065403 -0.06047371 -0.12679578 -0.23441206 0.13290188 0.10678576
0.12024743 -0.17003101 0.21141621 -0.15573211 0.22478673 0.0036094885 0.25934398 0.10777235
-0.19131266 -0.15742125 0.057904277 -0.06279234 -0.15363139 0.20505133 -0.025821704 -0.026095124
0.11756208 0.039330352 0.25366288 0.095898114 -0.12479579 -0.12402912 0.006313931 0.24232066
0.10743254 0.094947465 0.046081 -0.025791964 0.0052422546 -0.13833404 -0.118529744 0.001139988
-0.1872836 -0.0023047344 -0.15927407 0.075684726 0.14533232 0.079804465 -0.0776033 -0.058114663
0.037599895 -0.11583189 -0.077045135 0.05210518 0.1949247 0.026283221 0.111709006 -0.21678467
0.11029176 0.3095963 -0.073069364 -0.05174634 -0.24528252 -0.05439088 0.01861138 -0.006712945
-0.12425836 -0.033026032 -0.08228015 -0.071361795 0.20820186 0.008063595 -0.16868147 -0.072600536
-0.2111814 -0.09516292 -0.22268987 -0.009476665 -0.032820906 -0.12467883 -0.016355613 -0.01177038
0.24405809 -0.160796 -0.13329485 -0.1449222 0.09431604 0.31675684 0.03151239 0.18161735
0.115320906 -0.031648774 -0.22450925 0.11517376 0.11734338 -0.061786357 0.041331932 -0.057291914
0.3674536 0.091697276 0.21032289 0.011747898 0.08997202 -0.08301187 0.11900627 -0.2693901
-0.069509655 0.028325204 0.3599252 0.04195173 -0.09876935 0.027350215 0.14308944 -0.2103653
0.022749873 -0.038902473 0.056937512 -0.096421406 -0.12016368 0.024784323 -0.03878846 0.11359529
0.21661322 0.10430102 0.18556672 0.12409076 0.05500994 -0.07859061 -0.110209204 0.43849906
0.22135858 -0.050306607 0.01600141 -0.052942462 -0.02502521 0.090499565 -0.0641263 -0.040595185
-0.0842738 -0.089904144 -0.27150792 0.068538874 0.0046852278 -0.07400198 0.103810705 0.14230312
0.15981516 0.22520177 -0.13924457 -0.127566 0.12586632 -0.14287646 -0.0026713167 -0.212365
0.09851517 0.2736584 0.07888336 0.17203031 -0.038701013 0.059019096 0.12789711 0.03717026
-0.028001051 -0.28406602 0.033598434 -0.03043889 0.37723267 0.23181114 0.1378127 -0.23011136
0.051580496 0.18637529 0.07076395 -0.074081086 -0.061441287 -0.15089442 0.09740441 0.18826663
0.15886778 -0.07867661 -0.029457452 0.09529618 0.07896998 0.41108012 -0.015968157 0.011536786
-0.28316936 0.057156496 0.020080544 0.085294545 -0.019969927 -0.05352752 -0.13474372 0.036259968
-0.010974395 -0.28740513 0.13489474 0.13615076 -0.07714966 -0.17314428 -0.19298837 -0.07807712
-0.02517423 -0.08966538 0.004592366 -0.068191886 0.008085615 0.01271798 0.40038916 -0.029756289
0.12452453 -0.010644393 -0.13926597 -0.22052316 -0.13215898 0.014669711 -0.044035718 -0.018898543
0.06628466 0.020335091 0.11493061 0.064207874 -0.026517332 -0.003028456 0.26275983 -0.061589245
-0.10084737 0.070885174 0.081822336 -0.1258936 -0.07254047 -0.033257555 -0.13641426 0.09553569
-0.016749844 0.006801304 -0.16669995 0.10936992 -0.030555714 -0.10862243 0.11389297 -0.04309096
0.11138593 0.0911359 -0.1795538 -0.21276827 0.10852459 -0.106250614 0.33336675 -0.38797522
00000000: 671e 1b3e 6afe eabd 442d 26be 7dbc 5c3d
00000010: 34b1 003d 61a2 8bbe 8a55 4f3d 2ae1 0fbe
00000020: f863 883d aaad a9be b323 ce3d 48b3 77bd
00000030: c1d6 01be b709 70be 6e17 083e 7eb2 da3d
00000040: 4944 f63d 9c1c 2ebe 7e7d 583e 3d78 1fbe
00000050: 7e2e 663e 2b8d 6c3b bcc8 843e c0b7 dc3d
00000060: 77e7 43be 0933 21be 092d 6d3d 4599 80bd
00000070: 8c51 1dbe faf8 513e 0a88 d3bc 71c5 d5bc
00000080: 63c4 f03d dd18 213d 1ae0 813e 3b66 c43d
00000090: ef94 ffbd fb02 febd 18e5 ce3b e822 783e
000000a0: 9705 dc3d d173 c23d 6ebf 3c3d ab49 d3bc
000000b0: 38c7 ab3b 70a7 0dbe b9bf f2bd a66b 953a
000000c0: 46c7 3fbe 070b 17bb be18 23be 9800 9b3d
000000d0: ffd1 143e 8670 a33d 7bee 9ebd a409 6ebd
000000e0: 5902 1a3d 4539 edbd d7c9 9dbd 3e6c 553d
000000f0: 579a 473e e94f d73c b1c7 e43d cdfc 5dbe
00000100: a5e0 e13d 6883 9e3e 64a5 95bd f8f3 53bd
00000110: 572b 7bbe f9c8 5ebd e576 983c 44f8 dbbb
00000120: 2b7b febd 4e46 07bd 7f82 a8bd 2226 92bd
00000130: de32 553e 2b1d 043c d6ba 2cbe 97af 94bd
00000140: f03f 58be c7e4 c2bd d008 64be 0444 1bbc
00000150: 376f 06bd 9d57 ffbd 35fc 85bc 8dd8 40bc
00000160: 5dea 793e b5a7 24be 727e 08be 7c66 14be
00000170: c528 c13d f42d a23e 2313 013d e6f9 393e
00000180: 5e2d ec3d 25a2 01bd c1e5 65be 38e0 eb3d
00000190: ba51 f03d b113 7dbd ac4b 293d edaa 6abd
000001a0: e122 bc3e c8cb bb3d e25e 573e 417a 403c
000001b0: 4043 b83d 2102 aabd 8fb9 f33d 80ed 89be
000001c0: 145b 8ebd 420a e83c 1e48 b83e 94d5 2b3d
000001d0: 9647 cabd 8f0d e03c 0a86 123e 006a 57be
000001e0: f15d ba3c 3358 1fbd 4f37 693d 9678 c5bd
000001f0: 6018 f6bd 7e08 cb3c a6e0 1ebd a6a4 e83d
00000200: dbcf 5d3e c69b d53d 3405 3e3e 4c23 fe3d
00000210: 1a52 613d 1df4 a0bd 5db5 e1bd f382 e03e
00000220: d3ab 623e 4d0e 4ebd 6415 833c 32da 58bd
00000230: ab01 cdbc d657 b93d a654 83bd 2347 26bd
00000240: be97 acbd aa1f b8bd 1603 8bbe 1c5e 8c3d
00000250: 8a86 993b 5a8e 97bd b59a d43d e9b7 113e
00000260: 96a6 233e 4b9b 663e 2196 0ebe a9a0 02be
00000270: 1ae3 003e 354e 12be 4211 2fbb 3676 59be
00000280: 52c2 c93d f41c 8c3e 998d a13d b728 303e
00000290: f484 1ebd 02be 713d 76f7 023e d83f 183d
000002a0: 7662 e5bc 1a71 91be 839e 093d fb5a f9bc
000002b0: a424 c13e e65f 6d3e c61e 0d3e 50a2 6bbe
000002c0: 1246 533d 2ad9 3e3e b1ec 903d d3b7 97bd
000002d0: dca9 7bbd 1184 1abe f77b c73d f8c8 403e
000002e0: 3cae 223e 3421 a1bd c150 f1bc a52a c33d
000002f0: 03bb a13d 1879 d23e a7cf 82bc ca04 3d3c
00000300: 93fb 90be ee1c 6a3d f47f a43c e8ae ae3d
00000310: f997 a3bc ac3f 5bbd 42fa 09be 5585 143d
00000320: f3cd 33bc c426 93be d921 0a3e 1b6b 0b3e
00000330: a400 9ebd bc4c 31be be9e 45be e6e6 9fbd
00000340: 303a cebc 7ca2 b7bd 8f7b 963b 30a8 8bbd
00000350: 8779 043c 135f 503c cfff cc3e 76c3 f3bc
00000360: b706 ff3d d265 2ebc bd9b 0ebe d3d0 61be
00000370: af54 07be 3a59 703c cc5e 34bd 1ed1 9abc
00000380: 40c0 873d c795 a63c bd60 eb3d 6b7f 833d
00000390: e03a d9bc 0f79 46bb 7588 863e 0145 7cbd
000003a0: 1189 cebd 3f2c 913d 7892 a73d 40ea 00be
000003b0: 1990 94bd 1339 08bd 2eb0 0bbe 37a8 c33d
000003c0: f836 89bc 79dd de3b 64b3 2abe 56fd df3d
000003d0: fa4f fabc 7075 debd b840 e93d 2580 30bd
000003e0: 4e1e e43d 75a5 ba3d f4dc 37be eddf 59be
000003f0: 2442 de3d ec99 d9bd 0caf aa3e b0a4 c6be

bias f4 [64]
0.055874486 -0.098950446 -0.12962322 0.11361598 0.038073458 0.060244884 -0.025059827 -0.101418056
0.05146025 -0.028839337 -0.059468303 -0.06824334 0.027326712 0.048331995 0.07266183 0.05081668
0.022713007 -0.053675797 -0.0652409 -0.11018915 0.059677787 -0.07532916 -0.0012329156 0.049568318
0.03613789 0.12431423 -0.025365155 0.04363705 -0.031656086 -0.098844595 0.06663869 -0.060510844
0.06921314 0.028061664 -0.056204163 0.044621088 -0.043818586 -0.08645301 -0.0062817982 -0.047309864
-0.03209741 -0.07332104 -0.009210082 0.026105065 -0.0074010226 -0.00424653 -0.13715094 0.017595217
-0.09366057 0.023228133 -0.0038071515 -0.013084842 -0.07625027 -0.030458668 0.07248895 0.047740757
0.01595605 0.043713793 -0.119054444 0.025389852 0.023721404 -0.057463944 -0.07428393 -0.04079727
00000000: a5dc 643d 88a6 cabd f3bb 04be 7faf e83d
00000010: eaf2 1b3d 57c3 763d 444a cdbc 45b4 cfbd
00000020: fcc7 523d 7940 ecbc 0995 73bd 2ac3 8bbd
00000030: 45dc df3c c5f7 453d bacf 943d 2725 503d
00000040: a110 ba3c 27db 5bbd 059d 85bd d9aa e1bd
00000050: b270 743d 2d46 9abd c899 a1ba 2608 4b3d
00000060: 5305 143d 7698 fe3d 96ca cfbc c3bc 323d
00000070: d0a9 01bd 096f cabd de79 883d 38da 77bd
00000080: 9ebf 8d3d 93e1 e53c 5636 66bd 9ac4 363d
00000090: 1e7b 33bd 470e b1bd 8bd7 cdbb fdc7 41bd
000000a0: 9378 03bd 5729 96bd e2e5 16bc 4ada d53c
000000b0: 4784 f2bb 7a26 8bbb 4c71 0cbe d823 903c
000000c0: 1dd1 bfbd ed48 be3c 6781 79bb ce61 56bc
000000d0: 1a29 9cbd 7584 f9bc 1675 943d d08b 433d
000000e0: 43b6 823c 3c0d 333d d1d2 f3bd 61fe cf3c
000000f0: 6453 c23c 505f 6bbd 2c22 98bd 0a1b 27bd

weight f4 [8, 64]
0.23028146 -0.09912908 -0.2928182 -0.53186464 -0.099590674 0.07014756 0.2981331 0.09455595
-0.6295232 -0.46923822 -0.057043403 0.11971253 0.22741565 0.4702849 0.33878985 0.36164066
-0.28037483 -0.45016798 0.14125432 0.219753 -0.31154394 0.018027527 -0.17264062 0.38716945
-0.022816552 -0.51835936 0.314631 -0.031988896 0.099830285 0.21422817 0.2040265 -0.12299671
0.027759867 -0.10718543 0.10866585 -0.23114797 -0.115815096 -0.32148126 -0.10437413 0.13207975
-0.42419124 0.21771209 -0.17492127 0.36215457 0.2827239 0.17367414 -0.5425243 0.81774175
0.55611396 -0.012338926 -0.073591456 0.5647054 -0.31372523 0.41726795 -0.2527602 -0.09138135
0.27438992 0.3191278 0.05322778 0.05438629 0.021016875 -0.019347448 -0.21498854 -0.021475317
-0.16450943 -0.28603292 -0.51242185 -0.26902476 -0.08863834 -0.18688993 -0.15107529 0.43473992
-0.23338823 -0.3530706 0.19774401 0.003265861 -0.03790186 -0.17142116 0.07724997 -0.13119908
-0.07116357 0.49574023 -0.5114685 0.17263584 -0.13009137 -0.17565873 -0.10204516 -0.26353726
-0.03379661 -0.26122862 -0.37318322 0.29998884 -0.26196796 0.019059258 0.165981 0.25292867
-0.114797875 0.06538684 0.026616322 -0.041985635 0.18530211 0.4702665 0.5696391 -0.03715362
0.117479965 0.41753545 0.008041977 0.21168011 0.20096113 0.3051173 -0.49520162 0.39486274
-0.20735775 -0.38030455 0.21537855 -0.18129367 0.317036 0.40461132 0.5039341 -0.025502613
-0.41766647 -0.013428652 0.77383965 0.6945909 -0.06850395 0.42536184 0.23301695 -0.17123128
0.6922909 0.63663524 0.5718152 -0.59274405 0.036837388 -0.29344136 -0.14464128 0.23221391
0.17779003 0.2373999 0.20089321 0.29431912 -0.5087355 -0.7783765 -0.86137396 0.32714617
-0.12311601 0.3125398 0.34206468 0.33789903 0.38467652 -0.0378152 0.36634317 -0.03496857
-0.58304095 0.17930749 0.4375354 -0.4770242 0.636008 -0.15836361 -0.90263414 -0.23130634
0.5176417 -0.22490697 0.053522848 0.44846883 0.0636575 -0.6983818 -0.51698595 0.25995407
0.024887992 -0.8024191 -0.6030119 -0.3549532 -0.506214 0.14747846 0.919938 -0.85961515
0.100467995 0.25183353 0.47105962 0.49353337 -0.3919109 -0.3871365 -0.36005756 -0.32737264
0.37618476 0.5422018 -0.9192595 -0.7304075 0.296786 -0.44756857 -0.2866916 0.06586758
0.2814328 0.6790073 0.39648753 0.031491768 0.0791254 0.79618543 -0.5193134 0.3597572
-0.07902265 -0.7432683 0.8198334 0.009015952 0.61712474 0.3360491 0.14375827 0.22566594
-0.14508864 0.5316938 0.4932462 -0.735635 0.57730985 -0.34752098 0.6507118 0.44326386
0.48314026 0.012194228 0.15955278 -0.35310748 0.29769626 0.1328403 -1.0016779 0.69197804
0.58095914 -0.44200405 -0.031995874 -0.5799223 -0.08526596 0.029460713 0.10747533 0.39492935
-0.05956521 0.20649154 -0.5601249 0.28106296 0.3006881 -0.10095019 0.9170539 -1.2790604
-0.0021130543 0.2968662 -0.51967824 -0.0888616 0.49960005 -0.61285317 -0.1158173 0.2514461
-0.0060387673 -0.12382082 -0.12925029 -0.7770781 -0.084575154 -0.32910767 0.25073087 0.060337763
00000000: e7ce 6b3e 3004 cbbd 44ec 95be 4828 08bf
00000010: 32f6 cbbd 86a9 8f3d e7a4 983e 8da6 c13d
00000020: 6f28 21bf fe3f f0be 58a6 69bd d82b f53d
00000030: a6df 683e 2fc9 f03e dd75 ad3e f728 b93e
00000040: 4a8d 8fbe 6b7c e6be f9a4 103e ee06 613e
00000050: b082 9fbe 77ae 933c b4c8 30be 133b c63e
00000060: c7e9 babc 33b3 04bf 5017 a13e ca06 03bd
00000070: d273 cc3d a15e 5b3e 53ec 503e b3e5 fbbd
00000080: a968 e33c 0984 dbbd 338c de3d 0eb2 6cbe
00000090: 7730 edbd 3199 a4be 1bc2 d5bd ea3f 073e
000000a0: 982f d9be ebef 5e3e 901e 33be 536c b93e
000000b0: 30c1 903e a2d7 313e dfe2 0abf 8657 513f
000000c0: 7c5d 0e3f 3529 4abc 1eb7 96bd 8890 103f
000000d0: 98a0 a0be 25a4 d53e c969 81be 2526 bbbd
000000e0: d67c 8c3e b864 a33e 5f05 5a3d 29c4 5e3d
000000f0: 952b ac3c 8a7e 9ebc f525 5cbe 01ed afbc
00000100: 2975 28be e872 92be 142e 03bf 9dbd 89be
00000110: 0588 b5bd 1360 3fbe 7bb3 1abe 3b96 de3e
00000120: 53fd 6ebe abc5 b4be 687d 4a3e 0e08 563b
00000130: fb3e 1bbd 0789 2fbe 3b35 9e3d 0d59 06be
00000140: 35be 91bd aad1 fd3e 9aef 02bf 73c7 303e
00000150: ac36 05be e2df 33be 0efd d0bd 5bee 86be
00000160: 506e 0abd c2bf 85be df11 bfbe 2398 993e
00000170: aa20 86be 2922 9c3c ecf6 293e de7f 813e
00000180: 261b ebbd 89e9 853d 790a da3c 21f9 2bbd
00000190: d6bf 3d3e c5c6 f03e ded3 113f 652e 18bd
000001a0: 5699 f03d 35c7 d53e 7fc2 033c acc2 583e
000001b0: c1c8 4d3e 5638 9c3e 118b fdbe 732b ca3e
000001c0: 9755 54be 47b7 c2be 328c 5c3e 0ca5 39be
000001d0: 8b52 a23e 3729 cf3e d301 013f dbea d0bc
000001e0: 61d8 d5be d903 5cbc 5b1a 463f b6d0 313f
000001f0: cd4b 8cbd 07c9 d93e ff9b 6e3e 4157 2fbe
00000200: fa39 313f 87fa 223f 7b62 123f 13be 17bf
00000210: cde2 163d f23d 96be d81c 14be 7cc9 6d3e
00000220: 970e 363e f618 733e f3b6 4d3e ffb0 963e
00000230: 7d3c 02bf af43 47bf 0183 5cbf b47f a73e
00000240: 3f24 fcbd 3705 a03e 1a23 af3e 1a01 ad3e
00000250: 52f4 c43e 1ce4 1abd 5591 bb3e 343b 0fbd
00000260: 2c42 15bf 629c 373e a404 e03e 843c f4be
00000270: 6cd1 223f 122a 22be 0813 67bf 92db 6cbe
00000280: 2b84 043f 034e 66be c63a 5b3d b59d e53e
00000290: dd5e 823d 26c9 32bf 3159 04bf b318 853e
000002a0: e7e1 cb3c 576b 4dbf fd5e 1abf 6dbc b5be
000002b0: 3e97 01bf 9804 173e 0f81 6b3f bd0f 5cbf
000002c0: 2ac2 cd3d 53f0 803e ba2e f13e 68b0 fc3e
000002d0: 8ca8 c8be c136 c6be 7759 b8be 639d a7be
000002e0: 4a9b c03e bdcd 0a3f 9754 6bbf fcfb 3abf
000002f0: 56f4 973e b527 e5be 3ec9 92be 95e5 863d
00000300: f617 903e 6cd3 2d3f 6a00 cb3e 83fd 003d
00000310: 7f0c a23d cfd2 4b3f b9f1 04bf 1932 b83e
00000320: a1d6 a1bd d546 3ebf 9ae0 513f a5b7 133c
00000330: e3fb 1d3f a10e ac3e 5e35 133e f914 673e
00000340: 1e92 14be 161d 083f c48a fc3e 9352 3cbf
00000350: 94ca 133f 45ee b1be 0c95 263f 7bf3 e23e
00000360: 295e f73e 4dca 473c ce61 233e 81ca b4be
00000370: a56b 983e 4a07 083e fb36 80bf 7925 313f
00000380: bdb9 143f 5b4e e2be 1b0e 03bd ca75 14bf
00000390: eb9f aebd 9857 f13c 071c dc3d 2e34 ca3e
000003a0: a6fa 73bd 8572 533e 5864 0fbf 7ce7 8f3e
000003b0: caf3 993e f9be cebd 0bc4 6a3f 40b8 a3bf
000003c0: 2b7b 0abb d9fe 973e a209 05bf 12fd b5bd
000003d0: 94cb ff3e f2e3 1cbf 9f31 edbd 8bbd 803e
000003e0: dae0 c5bb c595 fdbd 305a 04be 97ee 46bf
000003f0: bd35 adbd cd80 a8be cc5f 803e bb24 773d

bias f4 [8]
0.031661134 -0.09776014 0.099627145 0.031735536 0.13163795 -0.011813353 0.08403061 -0.0072424817
00000000: 1baf 013d 7836 c8bd 5109 cc3d 1ffd 013d
00000010: 19cc 063e cb8c 41bc 3e18 ac3d 5752 edbb
