model-doom.pth (torch, 76459 bytes, 27 tensors)

weight f4 [8, 1, 3, 3]
0	0xbe4dacd6	-0.20085463
1	0xbe8e4b45	-0.277918
2	0xbe69b9ed	-0.22824831
3	0x3f08f357	0.5349631
4	0x3e971e93	0.29515514
5	0xbdb337dd	-0.087508895
6	0x3eeb4556	0.45951337
7	0xbea4f803	-0.32220468
8	0xbe986211	-0.2976232
9	0xbed2e1b3	-0.4118782
10	0xbebc33db	-0.36758313
11	0x3dbbd41f	0.09171318
12	0xbef7076b	-0.48247847
13	0x3ea4543d	0.3209552
14	0x3e909963	0.28242025
15	0xbe6a4396	-0.22877344
16	0x3ef0fe09	0.47068813
17	0x3e58b015	0.2116092
18	0x3e1253b9	0.1428975
19	0x3e9cfdf1	0.30662492
20	0x3e91ea54	0.2849909
21	0x3e833994	0.25629866
22	0xbe8867bb	-0.2664164
23	0x3e2ce03c	0.16882414
24	0x39a37aa9	0.00031181172
25	0xbe15c245	-0.14624889
26	0x3e10d43c	0.14143461
27	0x3d42205a	0.047394134
28	0x3e2ded26	0.16984996
29	0xbf27cba6	-0.6554512
30	0xbdefe280	-0.11713123
31	0x3d39867c	0.04529427
32	0x3f239d33	0.6391174
33	0xbe9f7971	-0.3114734
34	0xbf042829	-0.5162378
35	0x3f0575ae	0.5213269
36	0x3e8f26b5	0.2795922
37	0xbe91e847	-0.28497526
38	0x3d12a7cd	0.03580456
39	0xbdc1d2cf	-0.09464037
40	0x3dd6b387	0.10483461
41	0x3deb84bd	0.11499927
42	0xbe8a5cb7	-0.2702386
43	0x3e9bbed8	0.3041904
44	0x3ec9d166	0.3941757
45	0x3c867fec	0.01641842
46	0xbe85719a	-0.26063234
47	0xbe41c72e	-0.18923637
48	0xbdc68cd1	-0.09694827
49	0x3e3ba247	0.18323623
50	0xbea6286e	-0.3245272
51	0xbe83e29b	-0.25758824
52	0x3ed5d457	0.41763565
53	0xbdc85946	-0.097826526
54	0xbee2007f	-0.44141003
55	0x3f33e1b0	0.70266247
56	0xbe3f92e6	-0.18708381
57	0xbe981904	-0.29706585
58	0x3edb9e14	0.42894042
59	0x3de80fc7	0.11331134
60	0xbec54c46	-0.38534755
61	0xbe72be3b	-0.2370538
62	0xbea0bd91	-0.31394628
63	0xbbf5d096	-0.007501672
64	0xbf0574ed	-0.5213154
65	0x3ee67cb1	0.45017007
66	0x3f548f6a	0.8303133
67	0xbf08a3a5	-0.533747
68	0x3e77981c	0.24179119
69	0xbd4929af	-0.04911202
70	0xbf452aa8	-0.77018213
71	0x3e22e290	0.15906739

weight f4 [8]
0	0x3f5e227d	0.86771375
1	0x3f7a22da	0.9770943
2	0x3f846338	1.0342779
3	0x3f84f407	1.0386971
4	0x3f51b4b1	0.8191634
5	0x3f703bed	0.9384144
6	0x3fa1b122	1.2632182
7	0x3f8236c9	1.0172969

bias f4 [8]
0	0xbdaaa8f8	-0.083330095
1	0xbe3a6b09	-0.18204893
2	0xbe7c0700	-0.24612045
3	0xbe5f3f58	-0.21801507
4	0xbdf37086	-0.118866965
5	0xbe2461ee	-0.16052982
6	0xbdea6a04	-0.11446002
7	0xbd4f9cb5	-0.050686557

running_mean f4 [8]
0	0xbd2f69ac	-0.042825386
1	0xbd5cdfc5	-0.05392434
2	0x3eb19a75	0.34688154
3	0xbd97cbf6	-0.07411949
4	0x3e66d2d7	0.22541367
5	0xbe72e8c7	-0.2372161
6	0xbe7df62a	-0.24800935
7	0xbd9e23b7	-0.07721656

running_var f4 [8]
0	0x3bc409ac	0.0059825983
1	0x3c300ada	0.010744775
2	0x3c8a1e27	0.01686008
3	0x3b8613c3	0.0040917112
4	0x3bfb5c48	0.007670913
5	0x3c09a61c	0.00840142
6	0x3c4464da	0.0119869355
7	0x3bb7abff	0.0056052203

weight f4 [8, 8, 3, 3]
0	0xbd91c97c	-0.07118508
1	0x3ee01469	0.43765572
2	0xbdb454ab	-0.08805212
3	0xbd01dfd6	-0.031707607
4	0x3b2b4019	0.0026130734
5	0xbe1bec81	-0.15226938
6	0x3e4c5146	0.19952878
7	0x3e195d98	0.1497711
8	0xbad1bd36	-0.0016001824
9	0x3e1d3b48	0.15354645
10	0x3db03746	0.086042926
11	0xbe0f8724	-0.14016396
12	0x3dcaf43e	0.09909867
13	0x3e7f9175	0.24957831
14	0xbd46b0a3	-0.048508298
15	0x3a00b4db	0.0004909762
16	0xbd3f694d	-0.046731282
17	0xbe13f501	-0.1444893
18	0xbe91c23f	-0.2846851
19	0xbe87b3ed	-0.2650446
20	0x3e02dd29	0.12779678
21	0x3daeaf38	0.08529514
22	0xbe553c2d	-0.20823736
23	0x3e05d045	0.1306773
24	0x3e426d8e	0.18987104
25	0xbe06a212	-0.13147762
26	0xbc4046bd	-0.011735615
27	0xbd2bafa9	-0.04191557
28	0x3da77c1b	0.08177968
29	0x3e22bdb6	0.15892681
30	0x3d813f4f	0.06310903
31	0xbceea7f5	-0.029132823
32	0xbe54d304	-0.20783621
33	0xbd8b5284	-0.06802848
34	0xbe9eedd8	-0.31040835
35	0x3e2ff229	0.1718222
36	0xbcd6c169	-0.026215272
37	0x3dc1077b	0.09425255
38	0xbd4911ba	-0.04908917
39	0x3db72be2	0.08943917
40	0xbd45f277	-0.048326936
41	0xbcf35ea8	-0.029708222
42	0x3d13f331	0.036120597
43	0xbe0ad4e5	-0.13557775
44	0x3da838d2	0.082139626
45	0xbc126e05	-0.0089373635
46	0xbe41aa20	-0.18912554
47	0x3e40c330	0.18824458
48	0xbc30f408	-0.010800369
49	0x3d6336e9	0.05547229
50	0xbd5655b3	-0.052327823
51	0xbd31f981	-0.043450836
52	0x3db68a97	0.08913153
53	0x3e0f4de4	0.13994557
54	0x3d9d6912	0.07686056
55	0x3d34f822	0.04418195
56	0x3dd762eb	0.10516914
57	0x3e0c3b50	0.13694501
58	0xbebe9778	-0.37224936
59	0xbe7555ad	-0.23958464
60	0xbe5dae43	-0.21648507
61	0x3e5cdfef	0.21569799
62	0x3e17e455	0.14833196
63	0xbe934672	-0.28764683
64	0x3d69e087	0.05709889
65	0x3c4b4fe2	0.012409182
66	0x3cc35b1f	0.02384716
67	0x3d7a3110	0.061081946
68	0x3e2fbee3	0.17162661
69	0x3dd60b24	0.10451344
70	0xbed193f8	-0.40933204
71	0x3df73f27	0.12072592
72	0x3d5fdc51	0.05465347
73	0x3d18feac	0.03735225
74	0xbe9d5e0c	-0.30735815
75	0xbddffb61	-0.109366186
76	0x3d5be6a9	0.05368677
77	0xbc922f43	-0.017844802
78	0xbea2b5aa	-0.31779224
79	0x3cf2694a	0.029591221
80	0x3e91fc30	0.28512716
81	0xbd23641c	-0.039890394
82	0x3daa64e4	0.083200246
83	0xbd10fb9e	-0.03539621
84	0xbd9fa286	-0.07794671
85	0xbe49f9c2	-0.19724181
86	0x3daf3fab	0.085570656
87	0xbca73e3a	-0.020415414
88	0xbe4b087d	-0.19827457
89	0xbd9d122a	-0.0766948
90	0xbc8dd03c	-0.017311208
91	0xbdc8ec1c	-0.09810659
92	0x3ca3af59	0.019981073
93	0xbd71795d	-0.05895363
94	0x3dc71424	0.097206384
95	0x3c7de8ce	0.0154973995
96	0xbdc48fc5	-0.09597734
97	0x3cd7be4e	0.026335862
98	0xbe300b64	-0.17191845
99	0x3df8c6f8	0.12147325
100	0x3c389ac7	0.011267371
101	0x3d64e096	0.055878244
102	0x3e0e54ac	0.13899487
103	0xbe823512	-0.25431114
104	0xbe3433e8	-0.17597926
105	0x3e5479c0	0.20749569
106	0xbe1bc580	-0.15212059
107	0xbdc3d403	-0.095619224
108	0xbcca665a	-0.024707008
109	0x3ba9ae2d	0.005178234
110	0xbd9ce7fb	-0.07661434
111	0x3d39523f	0.04524445
112	0x3dbccc7d	0.092186905
113	0xbe9002d9	-0.28127173
114	0xbd202db8	-0.0391061
115	0x3dcbdcc2	0.099542156
116	0xbdf22008	-0.11822516
117	0x3e3c7f17	0.18407856
118	0xbc7278d6	-0.014799317
119	0x3d8e80e1	0.069581755
120	0x3ddf7bcc	0.10912284
121	0x3ca2a4ea	0.019854028
122	0x3e06095e	0.13089511
123	0xbd2666ca	-0.04062537
124	0xbc6cfb95	-0.014464279
125	0x3e8d1b4e	0.27559894
126	0x3e5c4508	0.21510708
127	0xbd90c53d	-0.0706887
128	0x3e79876c	0.24368066
129	0xbdeeaa25	-0.11653546
130	0x3d670a2f	0.056406196
131	0x3da53228	0.08066207
132	0xbd9a13d9	-0.07523317
133	0xbe1e1001	-0.15435793
134	0xbd27631c	-0.040866002
135	0x3e81b3c1	0.25332454
136	0xbbe6f280	-0.007047951
137	0xbe633387	-0.22187625
138	0xbc51a4bb	-0.012795622
139	0x3eacdebf	0.33763692
140	0x3e432f60	0.19061041
141	0xbc2d548f	-0.010579242
142	0x3ccdc2f7	0.02511738
143	0xbe4d8326	-0.2006956
144	0xbdcee0a8	-0.101014435
145	0xbeab3974	-0.3344227
146	0x3e222433	0.15834121
147	0xbdbdd736	-0.09269564
148	0x3e494dc2	0.19658569
149	0x3e0378f3	0.12839107
150	0xbd0c8828	-0.034309536
151	0xbdda289b	-0.10652276
152	0xbd49ef44	-0.049300447
153	0x3d92340a	0.07138832
154	0x3c964344	0.018342622
155	0xbb4de253	-0.0031415417
156	0x3e8f8640	0.28032112
157	0x3d0edaef	0.03487676
158	0x3d10a8e7	0.035317328
159	0xbe0949c4	-0.13407046
160	0x3d7443b5	0.059634883
161	0x3da869f8	0.08223337
162	0xbe467f02	-0.19384387
163	0xbd3c4090	-0.04596001
164	0xbe883dc7	-0.26609632
165	0xbe9319a4	-0.287305
166	0xbdf14008	-0.11779791
167	0xbe048fb7	-0.12945448
168	0xbe0eb52b	-0.13936298
169	0x3ded2907	0.11580091
170	0x3d41d3ed	0.04732125
171	0x3d9cf203	0.076633476
172	0xbe722a4d	-0.23648949
173	0x3c477b1b	0.012175347
174	0x3d5e756f	0.054311212
175	0x3dcb29fa	0.09920116
176	0x3dd78c13	0.10524764
177	0xbdd0ea35	-0.102009214
178	0x3db07aa5	0.086171426
179	0xbd8d7e41	-0.06908847
180	0xbd8f9713	-0.07011237
181	0x3d50868a	0.050909556
182	0x3d80d21f	0.062900774
183	0xbd578f54	-0.052626923
184	0x3dab7ea2	0.08373763
185	0xbb7e3d2c	-0.0038793785
186	0xbe2059ac	-0.15659207
187	0xbd74fc2f	-0.059810814
188	0xbe1d27a7	-0.15347157
189	0xbe83718d	-0.2567257
190	0xbdd77323	-0.105200075
191	0xbe5f9d45	-0.21837337
192	0x3d92df98	0.071715534
193	0x3c48ac99	0.012248182
194	0x3e0d375a	0.13790646
195	0xbdb59bd5	-0.08867613
196	0x3d359a1a	0.044336416
197	0x3d71efbc	0.05906652
198	0x3d3fd75d	0.046836246
199	0xbee7e25f	-0.45289895
200	0xbe64086f	-0.22268842
201	0xbe8016cb	-0.2501739
202	0x3cc6ebfe	0.024282452
203	0x3e670d93	0.22563772
204	0xbd88f3bb	-0.06687113
205	0x3cc882ed	0.024476493
206	0x3ebb3f6a	0.3657182
207	0x3e7cc8ec	0.2468602
208	0x3e988895	0.29791704
209	0x3e60ee2d	0.21965857
210	0xbe017f22	-0.12646154
211	0xbe8e0def	-0.27745005
212	0xbe232704	-0.15932852
213	0x3dd76b8e	0.10518561
214	0xbe5556c9	-0.20833887
215	0xbe8a9c6c	-0.27072465
216	0xbe2fafba	-0.17156878
217	0xbe942739	-0.28936175
218	0xbc4ba7e2	-0.012430163
219	0x3d6bf959	0.057610843
220	0x3df320b6	0.118714735
221	0x3c95562a	0.018229563
222	0x3d47a4d1	0.048741166
223	0xbdd9ed00	-0.10640907
224	0x3bc515be	0.0060145548
225	0xbe9b0ca6	-0.30283087
226	0xbe03e253	-0.12879305
227	0x3e21ee27	0.15813504
228	0xbdc955d9	-0.09830827
229	0x3e6e28e1	0.23257782
230	0x3e63a501	0.22230913
231	0xbda7e788	-0.08198458
232	0xbd09e329	-0.033663902
233	0x3ddbb797	0.10728376
234	0x3e04aab3	0.12955742
235	0x3dfaff12	0.12255682
236	0xbd0e0228	-0.034670025
237	0x3d8f4b05	0.06996731
238	0x3d66e804	0.05637361
239	0x3e2b1196	0.16705927
240	0xbd5a9b17	-0.05337056
241	0xbdf02722	-0.11726214
242	0xbe1b684b	-0.15176503
243	0xbdd9bef3	-0.10632124
244	0xbe23acc2	-0.1598387
245	0xbe07dfe5	-0.13269003
246	0x3e941830	0.28924704
247	0x3dfa150a	0.12211044
248	0xbe1ef138	-0.15521705
249	0xbe78992a	-0.24277177
250	0x3e14be48	0.14525712
251	0x3e11b87d	0.14230533
252	0xbcd69493	-0.026193893
253	0x3e8060ce	0.25073856
254	0xbe08d586	-0.13362703
255	0xbb664a77	-0.00351396

weight f4 [8]
0	0x3f69c132	0.9131042
1	0x3f67c9a8	0.9054208
2	0x3f86923c	1.0513377
3	0x3f82c3f5	1.0216051
4	0x3f8c7b03	1.097504
5	0x3f81a00c	1.0126967
6	0x3f87bd30	1.060461
7	0x3f76a5a6	0.9634651

bias f4 [8]
0	0x3ccda7da	0.025104452
1	0xbdf60cf2	-0.12014188
2	0xbe3f6df1	-0.18694283
3	0xbd5fe802	-0.05466462
4	0xbd9db603	-0.077007316
5	0x3d068adf	0.03284728
6	0xbc0cc6d0	-0.0085923225
7	0xbe230208	-0.15918744

running_mean f4 [8]
0	0x3d1af3e1	0.037830237
1	0xbe2a8236	-0.16651234
2	0xbf5522f6	-0.8325647
3	0xbe5b3ca0	-0.21409845
4	0xbec33173	-0.38123664
5	0xbd5abcc5	-0.05340268
6	0xbeafdd4f	-0.34348533
7	0x3eb2c728	0.3491757

running_var f4 [8]
0	0x3efb7cea	0.4911874
1	0x3ed35316	0.41274327
2	0x3eb7bad3	0.35884723
3	0x3f1a0238	0.60159636
4	0x3f09e5f1	0.5386649
5	0x3f29e68a	0.663674
6	0x3f00d40e	0.5032357
7	0x3f080d7f	0.53145593

weight f4 [8, 8, 3, 3]
0	0xbe82bd57	-0.2553508
1	0x3c3c1a80	0.0114809275
2	0x3e383b42	0.17991355
3	0x3dbf7c00	0.09349823
4	0xbe4a2dc0	-0.19744015
5	0xbc147811	-0.009061829
6	0x3d967563	0.073466085
7	0xbeaa66c3	-0.33281526
8	0x3e16e2a8	0.147349
9	0xbd4315e2	-0.04762829
10	0xbcb1ee8e	-0.021720197
11	0x3e53ae6b	0.20672004
12	0xbe692c39	-0.22770776
13	0xbb233af9	-0.0024906977
14	0x3e17b4ce	0.14815065
15	0xbd821c40	-0.063530445
16	0xbd2d22b0	-0.04226941
17	0xbdbe4990	-0.09291375
18	0xbe55075e	-0.20803592
19	0x3e189486	0.14900407
20	0xbe35a034	-0.17736894
21	0x3e07eba7	0.13273488
22	0x3d83939e	0.0642464
23	0x3d9fb284	0.07797721
24	0x3e045c6f	0.12925886
25	0x3d72c24e	0.059267335
26	0xbec5464e	-0.385302
27	0x3dd0afa9	0.101897545
28	0xbe65a967	-0.22427903
29	0xbdacfd32	-0.08446731
30	0xbdb36da1	-0.087611444
31	0x3d5ad856	0.05342897
32	0xbe925641	-0.28581432
33	0x3dc21e85	0.094784774
34	0xbe0d7c1d	-0.13816877
35	0xbe423654	-0.18966037
36	0xbe6dac1f	-0.2321019
37	0xbea8ee6f	-0.3299441
38	0x3e256840	0.1615305
39	0xbda45e38	-0.08025783
40	0x3cc3d808	0.023906723
41	0x3e05051f	0.12990235
42	0x3e8a0b73	0.2696186
43	0x3d3d000e	0.04614263
44	0xbe8eb07e	-0.27869028
45	0xbc84090b	-0.016117593
46	0x3d2f24f6	0.042759858
47	0x3e21e30a	0.15809265
48	0xbddc3e01	-0.10754014
49	0x3db42817	0.08796709
50	0x3ee4a8a9	0.44659927
51	0x3e69c1fb	0.22827904
52	0xbdb80757	-0.08985775
53	0xbe29cdbf	-0.16582392
54	0x3d1dcc11	0.03852469
55	0xbe925288	-0.2857859
56	0xbead3b4f	-0.3383431
57	0xbe3f51ca	-0.18683544
58	0xbcd7f5d3	-0.026362335
59	0xbd3be7bd	-0.0458753
60	0xbd756df9	-0.05991933
61	0xbe7f1ce0	-0.24913359
62	0x3e218c41	0.15776159
63	0x3d158841	0.036506895
64	0x3e1685e8	0.14699519
65	0x3e1b453b	0.15163128
66	0xbe1147fc	-0.14187616
67	0x3e38397f	0.17990683
68	0xbd54e98d	-0.051980544
69	0x3dc6fa45	0.09715704
70	0xbe8b943a	-0.27261525
71	0xbe00ec8b	-0.12590234
72	0xbccf4a91	-0.02530411
73	0x3cb79bdd	0.022413189
74	0xbe8a7daf	-0.27049014
75	0xbd400e88	-0.046888858
76	0x3d59f584	0.053212658
77	0xbdee32fd	-0.11630819
78	0xbba00e9c	-0.004884554
79	0xbdabc1f8	-0.08386606
80	0x3ca95db5	0.020674566
81	0xbc75124e	-0.014957977
82	0x3e21ca22	0.15799764
83	0xbceaf56d	-0.028681481
84	0x3d62f900	0.055413246
85	0xbe176f18	-0.14788473
86	0xbe0d8260	-0.13819265
87	0xbe8726d5	-0.26396814
88	0x3cdfdd4b	0.0273272
89	0xbd997fb5	-0.07495061
90	0xbccfc081	-0.025360348
91	0xbdee588a	-0.11637981
92	0xbbbe89ae	-0.0058147525
93	0x3da6b052	0.08139099
94	0xbe083a58	-0.13303506
95	0xbd7106f5	-0.058844525
96	0x3d344373	0.044009637
97	0x3e43d63e	0.19124696
98	0x3d3cfcbd	0.046139468
99	0xbd30db3d	-0.043177832
100	0x3e573be5	0.21018942
101	0xbd073947	-0.03301361
102	0xbd6a7632	-0.057241626
103	0xbd5d98e4	-0.054100886
104	0xbc6b1618	-0.014348529
105	0xbc21279b	-0.009836103
106	0x3dba1cf5	0.09087554
107	0xbe9b580c	-0.30340612
108	0x3dc33847	0.095322184
109	0x3e1ff4c3	0.15620713
110	0x3ca95a61	0.020672979
111	0xbcfe19a7	-0.031018091
112	0x3cb467e8	0.022022203
113	0xbdebb260	-0.11508632
114	0x3e146a47	0.14493667
115	0x3cb0dd4b	0.021589896
116	0x3cb8592d	0.02250346
117	0xbc53903b	-0.012912805
118	0xbb195278	-0.0023395102
119	0xbd5a5da3	-0.053311955
120	0x3d1365ee	0.03598588
121	0x3d943ef9	0.072385736
122	0x3d7e0e41	0.062025312
123	0xbe68bfd6	-0.2272943
124	0x3e03e030	0.1287849
125	0xbe4f7bcf	-0.20262073
126	0xbe460233	-0.19336776
127	0xbd92b5ae	-0.07163559
128	0xbe0ed17a	-0.13947096
129	0x3d4a1938	0.049340457
130	0xbdbd91e0	-0.09256339
131	0x3e689aa4	0.2271524
132	0xbc7f4092	-0.01557936
133	0xbdbd1bf2	-0.09233846
134	0xbdd46789	-0.1037131
135	0xbdfda69d	-0.123852946
136	0x3de9d20d	0.11417017
137	0x3cff352a	0.03115328
138	0xbba5a938	-0.005055573
139	0x3e2de1fb	0.16980736
140	0xbe85ecd7	-0.26157257
141	0xbdaa501b	-0.0831606
142	0xbdd5dc36	-0.104423925
143	0xbc1184f4	-0.008881796
144	0x3d52040d	0.051273394
145	0xbc8b516d	-0.0170066
146	0x3cd3b33d	0.025842303
147	0x3ca7efc8	0.020500079
148	0x3e123a52	0.1428006
149	0xbccd9a45	-0.025097976
150	0x3e255000	0.16143799
151	0xbec25d04	-0.3796159
152	0xbc2d15eb	-0.010564308
153	0x3d84bf7d	0.06481836
154	0xbb75b108	-0.0037489552
155	0x3e2c1785	0.16805847
156	0x3d8c05a3	0.068370126
157	0xbaa72a00	-0.0012753606
158	0xbe034618	-0.12819707
159	0x3e3ded79	0.1854762
160	0xbcd261dc	-0.025681429
161	0x3a677066	0.00088286994
162	0xbe448da2	-0.19194654
163	0x3d88c6ae	0.0667852
164	0x3e96ba24	0.2943889
165	0xbbcbf5b6	-0.0062243594
166	0xbdeba257	-0.11505573
167	0x3d2c2060	0.042023063
168	0x3ddd8c8b	0.10817822
169	0xbc4ea30d	-0.0126121165
170	0xbd9fcc5f	-0.078026526
171	0xbce78611	-0.02826217
172	0xbe8c9446	-0.27456874
173	0xbe1ed7bb	-0.15511982
174	0xbe1c913b	-0.15289776
175	0x3de409bc	0.11134669
176	0xbd2d3805	-0.042289753
177	0x3c895ca6	0.016767811
178	0x3e86e36a	0.26345378
179	0x3dd0c615	0.10194031
180	0xbdedf5e9	-0.11619169
181	0x3df92395	0.1216499
182	0x3dc3a16e	0.09552275
183	0x3db38cfb	0.08767124
184	0x3dd1cbc0	0.1024394
185	0xbd8b938b	-0.06815251
186	0xbe04e08f	-0.12976287
187	0xbe4d0d0a	-0.20024505
188	0xbd58058e	-0.052739672
189	0x3decc4d0	0.115609765
190	0x3e285a33	0.16440658
191	0xbde96e61	-0.11398006
192	0x3de476b9	0.11155457
193	0xbe2d61a6	-0.16931781
194	0xbd69efe1	-0.057113532
195	0xbd09a805	-0.0336075
196	0x3dbba60a	0.09162529
197	0xbe3f96a9	-0.18709816
198	0x3cceaea2	0.025229756
199	0x3e8cbbbc	0.2748698
200	0xbe2a7051	-0.16644408
201	0xbd31d30e	-0.043414168
202	0x3e2760c0	0.16345501
203	0x3e39f042	0.18158057
204	0xbd79f222	-0.06102193
205	0x3d0547f0	0.032539308
206	0xbdbe1248	-0.092808306
207	0xbcf46cbf	-0.02983701
208	0x3d1226b7	0.035681453
209	0x3ddb0512	0.106943265
210	0x3e281684	0.16414839
211	0xbe9dd46d	-0.3082613
212	0x3e6f1c54	0.2335065
213	0xbd80ecb1	-0.06295145
214	0xbd916371	-0.07099045
215	0xbddbd647	-0.107342295
216	0x3d84487b	0.06459137
217	0xbe0c4b12	-0.13700512
218	0x3d6e33f3	0.05815501
219	0x3e6b9337	0.23005377
220	0xbe5f64a0	-0.21815729
221	0xbe9f5018	-0.31115794
222	0x3d76921f	0.060197946
223	0xbe06e805	-0.13174446
224	0xbd5d2488	-0.053989917
225	0x3d3319a3	0.04372562
226	0xbe3fe560	-0.18739843
227	0x3db35767	0.08756905
228	0x3c7e4583	0.015519503
229	0x3dc5c43e	0.09656571
230	0x3e20a743	0.15688805
231	0x3cea993d	0.028637523
232	0xbd607c14	-0.05480583
233	0xbc996f76	-0.018729907
234	0xbe7be240	-0.24598026
235	0x3d9a2444	0.07526448
236	0xbe7714fa	-0.24129096
237	0x3dfa8cff	0.12233924
238	0xbe8989c0	-0.26862907
239	0x3da717e0	0.08158851
240	0x3c957945	0.018246302
241	0xbdb43555	-0.08799235
242	0xbd09aebf	-0.033613916
243	0xbd8cfbbf	-0.06883954
244	0xbdd78587	-0.10523515
245	0x3d97dc32	0.07415046
246	0x3de17874	0.11009303
247	0x3e1b78c4	0.15182787
248	0x3d54fa7b	0.05199669
249	0x3d2be59c	0.04196702
250	0xbe8d7abd	-0.27632704
251	0x3d954f02	0.0729046
252	0xbd70d7dc	-0.05879961
253	0x3e3299a9	0.17441429
254	0x3d6b5151	0.057450596
255	0xbc1f9fe7	-0.0097427135

weight f4 [8]
0	0x3f75c9a2	0.9601079
1	0x3f738c50	0.95135975
2	0x3f80967c	1.0045924
3	0x3f7a7fcd	0.9785126
4	0x3f719186	0.94362676
5	0x3f682409	0.90679985
6	0x3f657a90	0.8964014
7	0x3f86a59f	1.0519294

bias f4 [8]
0	0xbef8c84a	-0.48590308
1	0xbe2ef877	-0.1708697
2	0xbe16031d	-0.14649625
3	0xbe880624	-0.26567185
4	0xbe60cee7	-0.21953927
5	0xbe179f94	-0.14806968
6	0xbe87759f	-0.26456925
7	0xbf03dfe3	-0.515135

running_mean f4 [8]
0	0xbf1a6d34	-0.6032288
1	0xbefc4a13	-0.49275264
2	0x3dc8d7ff	0.09806823
3	0xbe4b9b63	-0.19883494
4	0xbe9ae169	-0.302501
5	0xbf39b522	-0.7254201
6	0xbe95909c	-0.2921189
7	0x3e4ae255	0.19812901

running_var f4 [8]
0	0x3f060a61	0.52359587
1	0x3e70b3fa	0.23506156
2	0x3f1b0d68	0.6056733
3	0x3f2c513a	0.6731144
4	0x3ec5e10b	0.38648257
5	0x3e9e3ec6	0.30907267
6	0x3e903c7d	0.2817115
7	0x3eb8905e	0.36047643

weight f4 [16, 8, 3, 3]
0	0x3e6c2b91	0.23063494
1	0xbdb9cd4a	-0.09072359
2	0xbd8887e0	-0.06666541
3	0x3da336e2	0.079694524
4	0x3d294054	0.041321114
5	0x3d9f08e1	0.077653654
6	0xbe4bfea0	-0.1992135
7	0x3d962c36	0.07332651
8	0xbcb8ff63	-0.022582715
9	0x3bddf202	0.0067732343
10	0xbdf6b9a1	-0.12047125
11	0xbd82aaf7	-0.06380265
12	0x3da55f2e	0.08074795
13	0x3de07d47	0.10961395
14	0xbc971b88	-0.018445745
15	0xbe0de074	-0.13855153
16	0xbe0202bf	-0.1269636
17	0xbdbfac98	-0.093590915
18	0xbe167c45	-0.14695843
19	0x3d78dcd1	0.060757462
20	0x3dd3864d	0.1032835
21	0xbca8f352	-0.020623837
22	0x3be32157	0.0069314647
23	0xbd8a742a	-0.06760438
24	0x3cf12671	0.029437276
25	0x3e37f995	0.17966302
26	0xbd346a80	-0.04404688
27	0x3e2d58e9	0.16928448
28	0x3ac09465	0.0014692663
29	0xbd18f2d9	-0.037340973
30	0xbe10527f	-0.1409397
31	0xbdb63c4d	-0.0889822
32	0x3d148454	0.03625901
33	0x3a606d0e	0.0008561172
34	0xbcd99782	-0.026561502
35	0xbd3871c3	-0.045030367
36	0xbe076edf	-0.13225888
37	0xbd4a0c49	-0.049328122
38	0xbcb57e77	-0.02215503
39	0x3d8387a8	0.06422359
40	0xbd87cd7d	-0.06630991
41	0xbda3e987	-0.08003526
42	0x3d042c6f	0.032268938
43	0xbcad20f9	-0.021133887
44	0xbd020084	-0.031738773
45	0xbcd3ae1b	-0.025839856
46	0x3c0cec3f	0.008601247
47	0xbcc8ff6c	-0.024535857
48	0xbd61d967	-0.05513897
49	0xbd928bab	-0.07155546
50	0xbdd962c9	-0.10614545
51	0x3e107611	0.14107539
52	0x3d5342e5	0.051577467
53	0x3e177971	0.1479242
54	0x3c89c131	0.016815754
55	0xbd553206	-0.05204966
56	0xbd831218	-0.063999355
57	0x3c989e8f	0.018630294
58	0xbd623dc2	-0.055234678
59	0x3cb8ce36	0.022559267
60	0xbbd79988	-0.0065795816
61	0x3e5bfb6a	0.21482626
62	0xbbd5137f	-0.0065025683
63	0xbdcbd2f1	-0.09952343
64	0x3b2fc46c	0.0026819957
65	0xbd4574b1	-0.04820699
66	0x3d765b37	0.060145583
67	0xbb176260	-0.0023099408
68	0xbd03d276	-0.032183133
69	0xbd29f80a	-0.041496314
70	0xbd7569c9	-0.059915338
71	0xbcb34b4d	-0.021886492
72	0xbccf486d	-0.02530309
73	0x3d2e77f2	0.042594858
74	0x3e284867	0.1643387
75	0xbd640074	-0.055664495
76	0xbc7c5b68	-0.015402652
77	0x3d677bee	0.056514673
78	0xbc52c2e1	-0.012863846
79	0x3df251ce	0.11832009
80	0xbe014b76	-0.12626442
81	0x3dad41bf	0.08459806
82	0xbdbf6c72	-0.09346856
83	0xbc5f0750	-0.013612583
84	0x3d5c3497	0.05376109
85	0xbe129756	-0.14315543
86	0x3e130486	0.14357194
87	0x3cc29965	0.023754785
88	0xbca23ea2	-0.019805256
89	0x3c06816e	0.008209569
90	0xbc9826d1	-0.018573197
91	0xbdbcad11	-0.09212697
92	0xbd581797	-0.052756872
93	0xbde24bf8	-0.11049646
94	0xbc6ca9cf	-0.014444782
95	0xbcb9347d	-0.022608036
96	0xbba52c2d	-0.0050406666
97	0x3e078456	0.13234076
98	0xbd21ecd4	-0.039532498
99	0xbd3574de	-0.044300906
100	0x3ddf3db8	0.10900444
101	0x3d54ea96	0.05198153
102	0x3d57eb2b	0.052714508
103	0xbd01de9c	-0.031706437
104	0xbd707975	-0.05870958
105	0x3dfccdf8	0.12343973
106	0x3ce6f7b7	0.028194292
107	0xbdd57252	-0.104221955
108	0x3d095579	0.03352878
109	0x3e2afe5e	0.16698596
110	0x3d932018	0.07183856
111	0x3db71569	0.089396305
112	0xbd922a0b	-0.07136925
113	0x3db33c5b	0.08751746
114	0x3d20de59	0.039274547
115	0xbd2875ae	-0.041127853
116	0x3dce91f0	0.10086429
117	0xbc831ca7	-0.016004873
118	0x3c9eeef9	0.01940106
119	0x3e181ef4	0.14855558
120	0x3d0e3fb8	0.034728736
121	0x3dbb2fc4	0.0913997
122	0x3db89df8	0.09014505
123	0xbdabcaaf	-0.08388268
124	0x3c47401a	0.012161279
125	0x3e15e94f	0.14639781
126	0x3db264bf	0.08710622
127	0xbd9e0a77	-0.0771684
128	0xbd8b1e74	-0.06792918
129	0xbd5468c7	-0.051857736
130	0x3e17be50	0.14818692
131	0xbde49ab1	-0.111623175
132	0x3d32a646	0.043615602
133	0xbd31ab78	-0.043376416
134	0xbb9a3864	-0.0047064293
135	0x3b0387dd	0.0020069994
136	0xbd3cd4f8	-0.04610154
137	0xbda84e31	-0.08218039
138	0xbd125773	-0.03572793
139	0xbe0d0ad1	-0.13773657
140	0x3e05314d	0.13007088
141	0xbba3051f	-0.0049749757
142	0x3c773655	0.015088637
143	0xbd6e037a	-0.058108784
144	0xbdf4fad4	-0.11961904
145	0x3e5c5840	0.2151804
146	0x3e4298a0	0.19003534
147	0x3d36e4d9	0.04465184
148	0x3e0fb85a	0.14035168
149	0xbd878fb6	-0.066192076
150	0xbdd7fe5b	-0.10546561
151	0x3c39cb5c	0.011339989
152	0xbdc5997c	-0.096484154
153	0x3c80676d	0.015674317
154	0xbe5502d9	-0.20801868
155	0xbd041b9e	-0.0322529
156	0xbdae22a8	-0.08502704
157	0xbe4564b1	-0.19276692
158	0xbcf8f560	-0.030390441
159	0xbcf35e04	-0.029707916
160	0x3e0066db	0.12539236
161	0xbd8cd86e	-0.06877218
162	0xbddd9a34	-0.108204275
163	0xbd9c77bc	-0.07640025
164	0xbc1068b5	-0.008814027
165	0x3d3a89a3	0.045541417
166	0xbdd5194b	-0.10405215
167	0xbbccd025	-0.0062503987
168	0xbe1b702d	-0.1517951
169	0x3e7464f9	0.23866643
170	0x3e360187	0.1777402
171	0xbe202958	-0.15640771
172	0x3d16b1b5	0.03679057
173	0x3e86e5bb	0.26347145
174	0x3ccc7e28	0.0249625
175	0x3e2a87ff	0.16653441
176	0xbe3645d9	-0.17800082
177	0x3d7f2118	0.06228742
178	0x3d7252de	0.05916106
179	0xbc86738d	-0.01641252
180	0xbd313abe	-0.04326891
181	0x3de79f5e	0.11309694
182	0xbde6cde5	-0.1126974
183	0x3d900ca1	0.07033659
184	0xbe8dbde5	-0.2768394
185	0xbd47f32b	-0.048815887
186	0xbcc51b17	-0.024060769
187	0xbce624fb	-0.028093806
188	0x3cd6b40e	0.026208904
189	0x3d16e637	0.036840644
190	0x3e250edc	0.1611895
191	0x3e53b77a	0.2067546
192	0xbe0637d7	-0.13107239
193	0xbc6764e4	-0.014123175
194	0xbde50e9e	-0.11184429
195	0xbd15a106	-0.036530517
196	0x3d45ff70	0.048339307
197	0x3e1a5ee7	0.15075265
198	0x3a63309e	0.00086666073
199	0x3d6a348b	0.057179015
200	0xbbbf7fb0	-0.005844079
201	0x3d1389e3	0.03602017
202	0x3d109601	0.035299305
203	0xbdd924ba	-0.10602708
204	0x3e204904	0.15652853
205	0x3e09c35c	0.1345343
206	0xbcb1b6a5	-0.021693537
207	0xbdfc40e8	-0.123170674
208	0xbe80419e	-0.25050062
209	0xbe849d9e	-0.25901502
210	0xbd27e0c3	-0.040985834
211	0xbe10be8e	-0.14135191
212	0x3e8f262a	0.27958804
213	0x3df8890b	0.12135514
214	0x3e327093	0.17425756
215	0xbdc951d0	-0.098300576
216	0xbd544d99	-0.051831815
217	0xbdd24e35	-0.10268823
218	0xbcc1100f	-0.023567228
219	0xbdde4619	-0.10853214
220	0xbd5f4243	-0.05450655
221	0x3d9c6385	0.07636169
222	0x3d47861b	0.048711877
223	0xbc514803	-0.012773517
224	0x3e0c54bd	0.137042
225	0x3dd4be41	0.103878506
226	0xbd923e5d	-0.07140801
227	0xbd5721d8	-0.05252251
228	0xbd4270b4	-0.047470763
229	0xbc8a16fc	-0.016856663
230	0xbd3709c7	-0.04468706
231	0xbc8bfb52	-0.017087612
232	0xbd5bf392	-0.053699084
233	0xbdafc0dd	-0.085817076
234	0xbc464312	-0.012100952
235	0x3e1e08d6	0.15433058
236	0xbe342ccc	-0.17595214
237	0xbce52a89	-0.027974384
238	0x3c8df0cd	0.017326737
239	0x3d17cd99	0.037061308
240	0xbdace892	-0.08442797
241	0x3cfa1e0f	0.030531911
242	0x3d5074a1	0.050892476
243	0x3c742fc7	0.014903969
244	0xbd96e85d	-0.073685385
245	0x3db03c27	0.08605223
246	0x3d842aa9	0.06453449
247	0x3c08f9a0	0.0083602965
248	0xbd2dcabd	-0.042429674
249	0xbd6ff2a2	-0.058581002
250	0x3c366c12	0.011134164
251	0x3dfab6f6	0.12241928
252	0x3d0ec7af	0.034858402
253	0xbd9fd869	-0.07804949
254	0x3dd67794	0.104720265
255	0xbe1a210b	-0.15051667

weight f4 [16]
0	0x3fb5ce91	1.4203664
1	0x3f9c41c0	1.2207565
2	0x3ff5bc36	1.9198062
3	0x3fab8423	1.33997
4	0x3fb8c802	1.4436038
5	0x3ff04939	1.8772346
6	0x3fa8e8da	1.3196061
7	0x3fd28256	1.6446025
8	0x3f8ba4e4	1.0909696
9	0x3f9e8f41	1.2387468
10	0x3f90be98	1.1308165
11	0x3fa17cfa	1.2616265
12	0x3f875d4a	1.0575345
13	0x3f8ad764	1.0846982
14	0x3f95dc5d	1.1707875
15	0x3f8aaf84	1.0834813

bias f4 [16]
0	0x3d5099ca	0.050927915
1	0x3da8fb39	0.08251042
2	0x3c7a9278	0.01529371
3	0x3e58a308	0.21155941
4	0x3eb1d7cf	0.3473496
5	0xbc570dfe	-0.013125895
6	0x3e9d3842	0.30706984
7	0x3c1d50e6	0.009601807
8	0x3d7b1c14	0.061306074
9	0x3dd6d9b8	0.10490745
10	0x3e0514b8	0.12996185
11	0x3dfdc996	0.12391965
12	0x3d1b7df8	0.03796193
13	0x3d9ef55c	0.07761642
14	0x3df83a47	0.121204905
15	0x3d52505f	0.05134618

running_mean f4 [16]
0	0xbe5a0bcd	-0.21293564
1	0x3d9145fc	0.070934266
2	0xbe484214	-0.19556457
3	0xbd44cbfc	-0.048046097
4	0xbeae52b8	-0.34047484
5	0xbeb2e932	-0.3494354
6	0xbdcfb970	-0.10142791
7	0xbedc837e	-0.4306907
8	0x3e48525e	0.1956267
9	0xbcf7c390	-0.030244619
10	0x3d5b0b49	0.05347756
11	0xbdd41982	-0.10356428
12	0x3d2da70a	0.04239563
13	0x3e8778d5	0.26459375
14	0x3e010cbb	0.12602513
15	0xbe6a2d4b	-0.2286884

running_var f4 [16]
0	0x3d7d0e32	0.061781116
1	0x3d71e486	0.059055828
2	0x3d846296	0.06464116
3	0x3db88da8	0.09011394
4	0x3d823af0	0.06358898
5	0x3d3dbab6	0.04632064
6	0x3dc09e74	0.094052225
7	0x3d684359	0.056704853
8	0x3d426171	0.04745621
9	0x3ccf6c43	0.025320178
10	0x3d6838e6	0.056694888
11	0x3cde5d78	0.027144179
12	0x3cd7dc35	0.02635012
13	0x3dbe0fd9	0.092803665
14	0x3dde1f63	0.1084583
15	0x3d0811fc	0.033220276

weight f4 [64, 96]
0	0xbd549c44	-0.05190684
1	0x3e075bed	0.1321866
2	0x3e26175d	0.1621985
3	0x3aad073e	0.0013201011
4	0xbdb88046	-0.09008841
5	0x3d117b1c	0.035517797
6	0xbdc6d193	-0.09707942
7	0xbe0f262a	-0.13979402
8	0xbdb3ce7d	-0.08779619
9	0xbc975570	-0.018473357
10	0x3ebe95d1	0.37223676
11	0x3dbea3af	0.09308564
12	0x3bdfe625	0.0068328553
13	0x3d7c52ea	0.06160251
14	0x3df52405	0.11969761
15	0xbdfafd4f	-0.12255346
16	0xbd51192e	-0.051049404
17	0x3d3b0653	0.045660328
18	0x3d8a1437	0.06742137
19	0xbda63ed9	-0.08117456
20	0x3e86fafe	0.26363367
21	0xbe020d00	-0.12700272
22	0xbd1b7b81	-0.03795958
23	0xbe337cb1	-0.17528035
24	0xbd87dbe1	-0.066337354
25	0xbb3bc7d8	-0.0028653052
26	0xbced445a	-0.028963257
27	0x3e8f135a	0.27944452
28	0xbc923e16	-0.01785187
29	0xbe14493b	-0.1448106
30	0xbdcdbcb0	-0.10045755
31	0xbdb6dfbf	-0.08929395
32	0x3f2df061	0.67944914
33	0xbd2fed4e	-0.04295092
34	0xbd931815	-0.07182328
35	0xbe1bb7a8	-0.15206778
36	0xbc9bd592	-0.019022737
37	0xbd0f9b91	-0.03506047
38	0xbd891961	-0.06694294
39	0x3cfb9899	0.030712413
40	0xbd42ba5a	-0.047541
41	0x3e101c1a	0.1407322
42	0x3bdb9686	0.0067012934
43	0x3eb24370	0.34817076
44	0xbe06726e	-0.13129589
45	0xbd7bd9ff	-0.061487194
46	0xbe13891d	-0.14407773
47	0xbc9dcfc2	-0.019264106
48	0x3d1d11d6	0.038347088
49	0xbdbaefbe	-0.091277584
50	0xbde3e632	-0.11127891
51	0xbdd3027d	-0.10303209
52	0xbd9e0342	-0.07715465
53	0xbd4323b6	-0.04764148
54	0xbc8de865	-0.017322728
55	0xbe4e1097	-0.20123516
56	0xbd330d21	-0.043713693
57	0xbed9f148	-0.42566895
58	0xbde873f9	-0.11350245
59	0xbcd41213	-0.025887525
60	0x3cb65104	0.022255428
61	0x3b53e951	0.0032335112
62	0xbdee50fd	-0.11636541
63	0x3ec190ab	0.37805685
64	0xbd2859f0	-0.041101396
65	0xbe0fa339	-0.14027108
66	0xbe2bd6ca	-0.16781154
67	0x3de7b00d	0.11312876
68	0x3f305a4a	0.6888777
69	0x3d1be5ca	0.03806094
70	0xbe14567d	-0.14486118
71	0xbd4b2959	-0.04959998
72	0x3dc1578b	0.094405256
73	0xba522658	-0.0008016578
74	0x3c3c82c6	0.011505788
75	0x3e0da66b	0.13833015
76	0x3d326733	0.04355545
77	0x3d8708d3	0.0659348
78	0x3c8b5666	0.017008971
79	0xbe35aea9	-0.17742409
80	0xbe7aa67f	-0.24477576
81	0xbe076519	-0.1322216
82	0xbdbbd401	-0.09171296
83	0xbe1572ab	-0.14594524
84	0xbca57343	-0.020196563
85	0xbddb58bf	-0.10710286
86	0x3d8eb6dc	0.069684714
87	0x3f1a88d1	0.60365015
88	0x3d14a857	0.036293354
89	0xbd62ea49	-0.055399213
90	0xbcc6d7a1	-0.024272742
91	0x3db42a6f	0.08797156
92	0x3e9ec381	0.31008533
93	0xbd7a2ec4	-0.061079755
94	0xbd2404fd	-0.04004382
95	0x3c22528f	0.009907379
96	0x3d0260a9	0.031830464
97	0x3dbe5172	0.09292878
98	0x3e001f54	0.1251195
99	0x3d7d6662	0.061865218
100	0x3dd6403f	0.10461473
101	0x3b9b0b11	0.004731544
102	0x3d85a62d	0.06525836
103	0xbc4e13e6	-0.012577986
104	0x3d61934a	0.055072106
105	0x3d893b14	0.067007214
106	0x3e4eb5f9	0.20186605
107	0x3d594b54	0.053050354
108	0x3cc71e29	0.024306374
109	0x3d8cae39	0.06869168
110	0x3d68708e	0.056747966
111	0x3cd47047	0.025932444
112	0xbdbb8cd0	-0.09157717
113	0x3d9918ee	0.07475458
114	0xbcbc2081	-0.022964718
115	0xbcfadcf5	-0.030622939
116	0x3e087be1	0.13328506
117	0x3d8a7787	0.06761079
118	0xbd958790	-0.07301247
119	0x3c2709e1	0.010195226
120	0x3d856539	0.06513447
121	0x3db93698	0.09043616
122	0x3c2071a6	0.009792721
123	0x3dbc5d97	0.09197538
124	0xbcdc4db4	-0.02689252
125	0xbcc9cb2d	-0.024633015
126	0xbcc70d6e	-0.024298396
127	0x3def0822	0.11671473
128	0x3ea33828	0.3187878
129	0x3d9c9b6f	0.07646834
130	0x3deb49a1	0.11488653
131	0x3df438d7	0.11924904
132	0xbcd173b2	-0.025567863
133	0xbc47dba2	-0.012198361
134	0x3d77787b	0.060417634
135	0x3c7bb3f8	0.015362732
136	0x3dde3641	0.10850192
137	0xbc81d303	-0.015847689
138	0x3d7cd6fc	0.061728463
139	0x3db807c4	0.08985856
140	0xbc010d07	-0.007876641
141	0xbd504a88	-0.05085233
142	0x3d184748	0.037177354
143	0x3d66a552	0.056310005
144	0x3cb8493e	0.022495862
145	0xbdc55190	-0.096346974
146	0x3da59ac9	0.080861636
147	0xbd92407c	-0.07141206
148	0xbd934e0c	-0.07192621
149	0x3da6a35c	0.08136627
150	0x3dab34b5	0.083596624
151	0x3cc55f6d	0.024093354
152	0x3cacc2e9	0.021089034
153	0x3db3eebe	0.08785771
154	0xbce7461d	-0.028231675
155	0x3c087d57	0.008330665
156	0x3bbf8a02	0.0058453092
157	0xbccf32a1	-0.025292696
158	0x3d8d955a	0.06913252
159	0x3e460137	0.19336401
160	0x3dcae4c9	0.099069186
161	0xbd8d8c73	-0.06911554
162	0x3d36dfb7	0.044646945
163	0x3d19ad83	0.03751899
164	0x3ea4bd64	0.32175744
165	0xbc778ce0	-0.015109271
166	0x3e000097	0.12500225
167	0x3b7de0ed	0.0038738803
168	0x3d10c8cf	0.035347756
169	0xbd95c441	-0.07312823
170	0xbdd158bd	-0.102220036
171	0xbc4d2965	-0.012522076
172	0xbdb0aa18	-0.08626193
173	0xbd525c6b	-0.051357668
174	0xbc45e195	-0.012077709
175	0xbc31a81a	-0.010843301
176	0x3cc7743c	0.024347417
177	0x3cdf66b1	0.027270647
178	0xbb96ff3c	-0.004608063
179	0xbca07f13	-0.019591844
180	0x3d6c57df	0.057700988
181	0xbd73eabf	-0.059550043
182	0xbd5d5f63	-0.054046046
183	0x3e958100	0.29199982
184	0x3dc21389	0.09476382
185	0xbd9e28f6	-0.077226564
186	0xbd46a8f3	-0.048500966
187	0xbc8dadbb	-0.017294755
188	0xbc5f9c63	-0.013648125
189	0xbd929d4d	-0.07158909
190	0xbd81fd2e	-0.06347118
191	0x3d8828a7	0.06648379
192	0x3da44d71	0.08022583
193	0x3d97b3ab	0.07407316
194	0xbd1ce079	-0.03830001
195	0xbd99002c	-0.07470736
196	0xbb56e145	-0.003278808
197	0x3deec2dc	0.1165826
198	0x3b098416	0.002098327
199	0x3da26e4d	0.079311945
200	0xbd08ad1b	-0.03336821
201	0xbc0436ae	-0.008069677
202	0x3cb6db4e	0.02232137
203	0xbcddf2a9	-0.027093248
204	0xbcb1a163	-0.0216834
205	0xbd2eef84	-0.04270889
206	0x3bf9554a	0.007609044
207	0xbd95a812	-0.073074475
208	0x3d83decd	0.0643898
209	0xbdb2c492	-0.08728899
210	0x3d777386	0.060412906
211	0xbd046d36	-0.032330714
212	0x3c088dd5	0.008334597
213	0x3c8de673	0.0173218
214	0x3cb0edab	0.021597704
215	0x3d2bd4f5	0.04195114
216	0xbd997902	-0.074937835
217	0x3cfc9a57	0.030835314
218	0x3dac9a72	0.084278956
219	0x3ce06dbb	0.027396074
220	0xbd81c2da	-0.06335993
221	0xbba33cb7	-0.004981603
222	0x3da2c762	0.079481855
223	0x3dabf103	0.08395579
224	0xbdd83199	-0.10556335
225	0x3d36f57a	0.0446677
226	0x3b3c8c73	0.0028770238
227	0x3cccfd58	0.025023147
228	0x3c9e0b81	0.019292595
229	0x3d5a6988	0.0533233
230	0x3d5bce40	0.053663492
231	0x3d7b3af7	0.06133553
232	0xbd0c4b91	-0.034251753
233	0x3daea0db	0.085267745
234	0x3dbf0254	0.09326616
235	0x3dd47621	0.10374094
236	0x3d3b4b79	0.045726273
237	0x3d77ab4b	0.060466092
238	0xbd9a0bfc	-0.07521817
239	0x3dc4b9b0	0.096057296
240	0xbdafc7d1	-0.08583034
241	0xbda120f2	-0.07867612
242	0xbc844b3f	-0.016149161
243	0x3dbfb738	0.09361118
244	0xbd4c4c2d	-0.049877334
245	0x3d50c9f5	0.05097385
246	0xbcac5a07	-0.021039022
247	0x3d16b265	0.036791224
248	0xbdac9113	-0.08426108
249	0x3de5b09f	0.112153284
250	0x3d86c883	0.06581213
251	0x3d5810e9	0.0527505
252	0xbd534652	-0.051580735
253	0x3e0523a1	0.13001873
254	0x3df80297	0.12109869
255	0x3d52a76b	0.051429193

bias f4 [64]
0	0x3dbd8988	0.09254748
1	0x3d906a97	0.070515804
2	0x3df9705d	0.12179635
3	0x3d5e5a6f	0.054285463
4	0xbc893c2f	-0.01675233
5	0xbc9f6aba	-0.01946007
6	0x3df6b4c5	0.12046198
7	0x3d4b800b	0.04968266
8	0xbd3c922f	-0.04603785
9	0x3d182ef6	0.03715416
10	0x3dae606c	0.08514485
11	0x3c2a9af1	0.0104129175
12	0x3a76f40c	0.0009420521
13	0xbbc9eb3f	-0.0061620767
14	0x3d87635d	0.06610749
15	0xbcb104e6	-0.021608781
16	0x3dd8f6c2	0.1059394
17	0x3e007aa2	0.1254678
18	0x3da54084	0.08068946
19	0x3d8bd96c	0.06828579
20	0x3dbbece8	0.09176046
21	0xbd6cbec9	-0.057799134
22	0xbca1054f	-0.019655852
23	0x3dab3058	0.0835883
24	0xbc0be997	-0.008539579
25	0xbd5c890f	-0.053841647
26	0x3d6ea7f0	0.058265626
27	0x3ca21e3f	0.019789813
28	0x3b31ec0f	0.0027148759
29	0x3d446236	0.047945224
30	0xbd45ad92	-0.048261233
31	0xbd9e6e28	-0.077358544
32	0xbd6e4017	-0.05816659
33	0x3d3bce2d	0.04585092
34	0x3d8b4f1c	0.06802198
35	0x3d93a71e	0.072096094
36	0x3d8779f8	0.066150606
37	0x3da89b69	0.08232767
38	0x3e10dfd1	0.14147879
39	0x3d3af878	0.045647115
40	0xbd2bd7d0	-0.04195386
41	0x3d2aa9cf	0.04166585
42	0x3b3ab00c	0.002848628
43	0x3c106f98	0.0088156685
44	0xbd99edb0	-0.075160384
45	0xbd8c09ce	-0.068378076
46	0x3dadcba0	0.08486104
47	0xbda57dae	-0.08080612
48	0x3d9588d9	0.07301492
49	0xbdbd089a	-0.09230156
50	0x3cd95c50	0.026533276
51	0x3ce14955	0.027500788
52	0xbbbb9ac6	-0.0057252375
53	0xbd452a73	-0.048136186
54	0xbce57f42	-0.028014783
55	0xbd326394	-0.043551996
56	0xbd979ca3	-0.07402923
57	0x3d16351a	0.036671735
58	0x3cc2b351	0.023767145
59	0x3dbe1d9d	0.09282992
60	0x3d24a9c5	0.040200967
61	0xbd11b35c	-0.03557144
62	0xbc354cea	-0.011065701
63	0x3e3c8a44	0.18412119

weight f4 [1, 64]
0	0x3fcae631	1.5851499
1	0x3f207ba8	0.62688684
2	0xbe9fb3ff	-0.31192014
3	0xbddf82e2	-0.10913636
4	0x3d769f20	0.060210347
5	0x3f2dd3d2	0.6790134
6	0xbf0f6ef6	-0.5602869
7	0xbd00bdb5	-0.03143092
8	0xbd907a28	-0.070545495
9	0xbe7262a4	-0.23670441
10	0x3daa75df	0.083232634
11	0x3f0953cc	0.5364349
12	0xbebb6481	-0.36600116
13	0x3d81638c	0.06317815
14	0x3f599ac1	0.8500176
15	0xbe3f8760	-0.18703985
16	0xbe19ea02	-0.15030673
17	0xbebcf699	-0.3690689
18	0xbd673507	-0.056447055
19	0x3f6d2c1a	0.9264542
20	0xbe4ae8d1	-0.19815375
21	0x3f3f12b7	0.7463793
22	0x3e4e8198	0.20166624
23	0x3e8609e5	0.26179424
24	0x3ea9faef	0.3319926
25	0x3f513f97	0.81737655
26	0x3cd191e7	0.025582267
27	0xbe8d471f	-0.27593324
28	0x3c9c5790	0.019084722
29	0xbdceca13	-0.10097136
30	0xbe81da46	-0.25361842
31	0x3d9a6a96	0.07539861
32	0xbd3b1f3e	-0.04568409
33	0x3e9bf035	0.304567
34	0xbeeb2c15	-0.4593207
35	0xbe85a467	-0.26101992
36	0xbe680e37	-0.22661673
37	0x3e32e0d9	0.17468585
38	0xbf0c448e	-0.54792106
39	0xbe8c19cd	-0.27363434
40	0x3f2c3128	0.67262506
41	0xbc408ff1	-0.011753068
42	0xbee2edac	-0.44321954
43	0xbe35f6c9	-0.17769922
44	0xbd1bd28b	-0.038042586
45	0x3d55e86b	0.052223604
46	0xbefdde8e	-0.49583858
47	0x3f64e03b	0.8940465
48	0x3eb65bb0	0.35616827
49	0xbd0c6cdc	-0.034283504
50	0xbe8f5d31	-0.28000787
51	0x3eef6d13	0.46762905
52	0xbea52584	-0.32255185
53	0xbec4add5	-0.38413873
54	0x3dbacd2f	0.09121167
55	0x3cc6f4e3	0.024286693
56	0x3d67c9ac	0.056588814
57	0x3ee4376e	0.4457354
58	0xbe87f2bf	-0.26552388
59	0x3def5c0f	0.11687481
60	0xbe81f024	-0.25378525
61	0x3e016c16	0.12638888
62	0x3cab8a0c	0.02093985
63	0xbf37b8a5	-0.7176612

weight f4 [64, 96]
0	0x3cd19062	0.025581542
1	0x3d7caf2e	0.061690502
2	0xbdaee8ed	-0.08540521
3	0x3d8a2a21	0.06746317
4	0xbb44575d	-0.00299593
5	0xbc0aae65	-0.00846443
6	0xbd82ec9d	-0.06392787
7	0x3e082d2f	0.13298486
8	0x3de9d530	0.114176154
9	0x3df27f89	0.11840732
10	0x3d704c2d	0.058666397
11	0xbd6b0234	-0.057375148
12	0xbd74cf7d	-0.05976819
13	0x3cc43cc4	0.023954757
14	0x3e0dd459	0.13850535
15	0x3e9c6a35	0.3054978
16	0xbd42936f	-0.047503885
17	0xbdbd6706	-0.09248166
18	0xbb17763c	-0.0023111245
19	0xbda436f4	-0.08018294
20	0x3cea6885	0.028614292
21	0x3d29b9d3	0.04143698
22	0x3cc87f36	0.024474721
23	0xbdacde63	-0.084408544
24	0x3d359269	0.04432908
25	0xbd6bfd95	-0.05761488
26	0xbc6a11b2	-0.014286445
27	0xbde2fe02	-0.110836044
28	0xbdd38735	-0.10328523
29	0x3df979bb	0.12181421
30	0x3d81a6ef	0.06330668
31	0xbdccc0ef	-0.09997737
32	0xbe0364ca	-0.12831417
33	0x3c6382e6	0.013886189
34	0x3d80c2d1	0.06287158
35	0x3cfb4f1a	0.030677367
36	0xbd81603c	-0.063171834
37	0xbcabb516	-0.020960372
38	0x3d6e739c	0.058215722
39	0x3e8a2bf5	0.26986662
40	0xbdc04588	-0.09388262
41	0x3dad9895	0.08476368
42	0xbd04f6f4	-0.032462075
43	0x3d0ab814	0.033866957
44	0x3e6a387b	0.22873108
45	0x3cc3bf0f	0.023894815
46	0x3d984652	0.074352875
47	0x3ce9c151	0.028534563
48	0xbdb2d3b1	-0.08731783
49	0x3dce562b	0.10075029
50	0x3d9a90cd	0.0754715
51	0xbc016296	-0.00789704
52	0x3d8518f9	0.06498904
53	0x3cd95900	0.026531696
54	0xbdab79f3	-0.08372869
55	0xbaed7454	-0.0018116334
56	0xbd4b1de2	-0.049589045
57	0x3cc13fd5	0.023590008
58	0xbcc5ef54	-0.024161972
59	0x3d8254f8	0.06363863
60	0x3d036e4d	0.032087613
61	0xbdd3d17a	-0.10342689
62	0x3dc9feb3	0.09863033
63	0xbdb64fb2	-0.089019194
64	0x3d6656e4	0.05623521
65	0x3d5225bc	0.051305518
66	0xbd904e14	-0.07046142
67	0x3dad26d4	0.084546715
68	0xbde63512	-0.11240591
69	0x3dd1f789	0.10252292
70	0x3d12eb4c	0.035868928
71	0x3c2e7a6b	0.010649304
72	0xbdbc2122	-0.09186007
73	0xbcf7238b	-0.030168315
74	0x3e3b8ff8	0.18316638
75	0x3cc6f74a	0.024287838
76	0xbc508fdc	-0.012729611
77	0xbde48e7c	-0.11159989
78	0xbd75e9be	-0.060037367
79	0x3d1aea3f	0.03782105
80	0xbd0929e5	-0.03348722
81	0x3da8f78c	0.08250341
82	0x3db7f7b9	0.08982796
83	0xbcb4d2f5	-0.022073248
84	0x3d964425	0.07337216
85	0x3d0df8fa	0.03466127
86	0x3e37a909	0.17935576
87	0x3d1b08f6	0.037850343
88	0xbd42c6f3	-0.047553014
89	0x3ceda319	0.029008435
90	0xbd721ed2	-0.059111424
91	0x3e0a0449	0.13478197
92	0x3d6542e6	0.055972002
93	0x3d256353	0.040377926
94	0x3cf40982	0.02978969
95	0x3d983144	0.07431272
96	0x3cf0e384	0.029405363
97	0xbd599796	-0.05312308
98	0x3d60e094	0.054901674
99	0xbd1a4a6b	-0.037668627
100	0x3d6b94ef	0.05751508
101	0x3dba68b8	0.09102005
102	0xbdca309a	-0.09872551
103	0xbd994e6f	-0.07485663
104	0xbda3f696	-0.08006017
105	0xbda1cc33	-0.07900276
106	0xbdc8ae42	-0.09798862
107	0xbd70b02a	-0.058761753
108	0xbd0c5a68	-0.034265906
109	0xbdcdad58	-0.10042828
110	0xbdbfc7ae	-0.09364258
111	0x3d6702b3	0.05639906
112	0x3d31e5e3	0.043432128
113	0x3d11cc63	0.03559531
114	0xbbf9962d	-0.0076167793
115	0xbd614686	-0.054998897
116	0x3daa2236	0.083073065
117	0x3dca6d95	0.09884182
118	0x3d5c1b24	0.05373682
119	0x3dd25f42	0.10272075
120	0xbc919ad6	-0.017774027
121	0xbdc612b7	-0.09671538
122	0xbb592fe2	-0.0033140113
123	0xbc0f2bff	-0.008738517
124	0xbd01465e	-0.031561248
125	0xbce76723	-0.028247422
126	0xbcc7d286	-0.024392378
127	0xbc5c7afd	-0.013457057
128	0xbd1ca5ab	-0.03824393
129	0x3aa11f23	0.0012292605
130	0xbd809c4a	-0.0627981
131	0xbda2b881	-0.079453476
132	0xbdb331be	-0.08749722
133	0xbd51a19f	-0.051179525
134	0xbcab9046	-0.020942818
135	0xbd06b28c	-0.03288512
136	0xbc7254a3	-0.014790687
137	0x3daebd1d	0.08532164
138	0x3d660452	0.056156464
139	0xbd9c8b29	-0.0764373
140	0xbc164004	-0.009170536
141	0xbd379604	-0.0448208
142	0xbd382eea	-0.044966616
143	0xbda330ec	-0.079683155
144	0xbdac0530	-0.08399427
145	0x3d9b9965	0.07597617
146	0xbda9fa95	-0.08299748
147	0xbd2a54e1	-0.041584853
148	0x3d82982e	0.06376682
149	0x3d840d0c	0.06447801
150	0xbdb2fdb0	-0.08739793
151	0x3d04510f	0.032303866
152	0xbcecc79d	-0.028903777
153	0x3b55a6f1	0.0032600726
154	0x3d34b433	0.044117164
155	0xbd799b52	-0.06093914
156	0x3d277dc6	0.04089143
157	0xbd76011e	-0.06005966
158	0x3c9ffe18	0.019530341
159	0x3d3e90b4	0.04652472
160	0xbd2a2ea6	-0.041548394
161	0xbcfb7556	-0.030695599
162	0xbc20478b	-0.009782682
163	0x3d0440cb	0.032288354
164	0x3dd81fe0	0.10552955
165	0xbdaf41bd	-0.085574605
166	0xbd971ade	-0.073781714
167	0xbc468d4a	-0.012118647
168	0x3b4e982b	0.0031523805
169	0xbd1a80d5	-0.03772052
170	0x3cc341a6	0.023835015
171	0xbd2e7929	-0.042596016
172	0x3cc89482	0.024484877
173	0xbcac34e8	-0.021021321
174	0x3dd7c267	0.10535126
175	0x3d960b40	0.073263645
176	0x3d632364	0.055453673
177	0xbd75f182	-0.060044773
178	0xbca62a0b	-0.02028372
179	0x3d86900f	0.06570446
180	0xbd1f47aa	-0.038886704
181	0xbc947083	-0.018120056
182	0x3915f36d	0.0001430043
183	0xbdca4fd9	-0.09878511
184	0xbd36b9a8	-0.04461065
185	0xbdb96182	-0.09051801
186	0xbdceffe4	-0.10107401
187	0x3d9513c3	0.0727916
188	0xbdc4039d	-0.09571002
189	0x3cc6f7db	0.024288109
190	0xbca9e00c	-0.020736717
191	0x3d805e1a	0.062679484
192	0x3ddeb307	0.108739905
193	0xbcf183a0	-0.029481709
194	0x3ce1913f	0.027535079
195	0x3bf47876	0.007460649
196	0x3d19a3b3	0.03750963
197	0xbccd8b9b	-0.025090983
198	0x3d287f65	0.041137118
199	0x3de11ef8	0.10992235
200	0x3cd95916	0.026531737
201	0x3b8bb653	0.004263678
202	0xbddc5e69	-0.10760195
203	0xbcd745aa	-0.026278336
204	0x3cafa876	0.021442633
205	0xbd84bdda	-0.06481524
206	0xbd98a680	-0.07453632
207	0x3d9f9b9e	0.077933535
208	0x3d515bde	0.051113002
209	0x3d153441	0.036426786
210	0x3d98a3f3	0.07453146
211	0x3d68604a	0.056732453
212	0xbbd8c27b	-0.0066149808
213	0x3d57c931	0.052682105
214	0x3da374f0	0.079812884
215	0x3caf9610	0.02143386
216	0xbd07bf66	-0.033141516
217	0xbd517b50	-0.05114299
218	0xbd18ad83	-0.03727485
219	0x3d8e66e8	0.069532216
220	0x3d55da39	0.052210066
221	0x3ca21434	0.019785024
222	0xbda73c15	-0.081657566
223	0x3ce992c6	0.02851237
224	0x3d523e67	0.051329043
225	0xbd523d52	-0.05132801
226	0x3b7edece	0.0038890126
227	0xbd881e3d	-0.066463925
228	0x3dbe140c	0.092811674
229	0xbd0c6a53	-0.034281086
230	0x3d3b6c64	0.045757666
231	0x3be5bd51	0.0070110937
232	0xbc87b1a9	-0.016564207
233	0xbd3eaca8	-0.046551377
234	0x3d9662a8	0.07343036
235	0x3d403fba	0.046935774
236	0x3d8e16f3	0.06937971
237	0x3d967932	0.07347335
238	0x3d7df25e	0.061998717
239	0xbd948c72	-0.0725335
240	0xbd63ae5b	-0.0555862
241	0x3dbab7b4	0.0911707
242	0xbd10bf84	-0.035338894
243	0xbbdc3cb6	-0.0067211045
244	0x3dd5a32b	0.104315124
245	0x3daa9564	0.08329275
246	0x3dc63ced	0.096795894
247	0x3d8fd8db	0.07023784
248	0x3dbbc085	0.091675796
249	0xbc268f50	-0.010166004
250	0x3d334e95	0.043776114
251	0xbd630061	-0.055420283
252	0xbdaa22c6	-0.08307414
253	0x39de27d0	0.00042372802
254	0xbd2f9957	-0.042870846
255	0xbd5370f0	-0.051621377

bias f4 [64]
0	0x3d80420f	0.062626
1	0x3dbf8809	0.093521185
2	0xbd896819	-0.06709308
3	0xbd60e336	-0.054904185
4	0x3d34aa80	0.044107914
5	0xbdaa624b	-0.08319529
6	0xbdac62ca	-0.0841728
7	0x3d3a81cb	0.045533936
8	0x3e05bd4f	0.13060497
9	0x3d4ec3b6	0.050479613
10	0xbd3605f5	-0.044439275
11	0x3d2580c9	0.040406022
12	0xbda70476	-0.08155148
13	0xbc45a345	-0.012062852
14	0x3e09da45	0.1346217
15	0x3cac5803	0.021038061
16	0x3d234e78	0.039869756
17	0xbd253f31	-0.040343467
18	0x3c819c62	0.01582164
19	0x3db9ecc0	0.090783596
20	0xbb828a05	-0.0039837384
21	0x3cb52cfb	0.022116175
22	0x3dd198bc	0.1023421
23	0x3d551965	0.05202617
24	0xbdd9ae3f	-0.10628938
25	0xbdc794a8	-0.09745151
26	0x3d2be64a	0.041967668
27	0x3d47d707	0.04878905
28	0xbce60a6e	-0.028081145
29	0xbd0964dc	-0.033543453
30	0xbd9ade2a	-0.07561906
31	0xbd38b15e	-0.045091026
32	0x3da34f55	0.07974116
33	0x3d5eaa1a	0.05436144
34	0x3d712585	0.058873672
35	0xbd95d626	-0.07316236
36	0xbd5db371	-0.054126207
37	0x3db604ff	0.08887672
38	0x3bfdf3b2	0.007749998
39	0x3db90c68	0.090355694
40	0xbdba4ce9	-0.09096701
41	0x3cc64057	0.024200602
42	0x3cc59958	0.024120972
43	0xbd1b0db6	-0.037854873
44	0x3d32c12c	0.043641254
45	0x3d54d398	0.051959604
46	0xbd44a926	-0.048012875
47	0x3db586ee	0.088636264
48	0xbd5211f2	-0.051286645
49	0xbd5aa405	-0.053379077
50	0xbd7e2a53	-0.062052082
51	0x3c9dbb66	0.019254398
52	0x3d94e6c7	0.0727058
53	0x3da2bf51	0.07946647
54	0x3d962b9a	0.07332535
55	0x3e0bd25f	0.13654469
56	0xbd93a2d7	-0.072087936
57	0x3d36d114	0.044632986
58	0x3d872b33	0.066000365
59	0xbd227559	-0.039662693
60	0xbd9b8461	-0.07593609
61	0x3d888df6	0.06667702
62	0x3de0aaeb	0.109701
63	0x3d7e9b51	0.06215984
